…
[2025-08-28 21:26:11 food_classification] (file: dataset.py func: build_dataset line: 21): INFO Building dataset with default transform.
[2025-08-28 21:26:11 food_classification] (file: __init__.py func: build_loader line: 35): INFO Successfully build val dataset
[2025-08-28 21:26:11 food_classification] (file: main.py func: main line: 217): INFO Creating model:cgvit
[2025-08-28 21:26:11 food_classification] (file: main.py func: main line: 221): INFO CGViT(
  (stage1): Sequential(
    (0): GhostBottleneck(in_channels=3, out_channels=32, dw_kernel_size=3, stride=2, dilation=1, use_se=False, kernel_size=1, act_fn=relu)
    (1): PartialBlock(
      (partial_conv1): PartialConv(
        (partial_conv): Conv2d(5, 5, kernel_size=(3, 3), stride=(1, 1), padding=(1, 1), bias=False)
      )
      (partial_conv2): PartialConv(
        (partial_conv): Conv2d(5, 5, kernel_size=(3, 3), stride=(1, 1), padding=(1, 1), bias=False)
      )
      (partial_conv3): PartialConv(
        (partial_conv): Conv2d(6, 6, kernel_size=(3, 3), stride=(1, 1), padding=(1, 1), bias=False)
      )
    )
    (2): PartialBlock(
      (partial_conv1): PartialConv(
        (partial_conv): Conv2d(5, 5, kernel_size=(3, 3), stride=(1, 1), padding=(1, 1), bias=False)
      )
      (partial_conv2): PartialConv(
        (partial_conv): Conv2d(5, 5, kernel_size=(3, 3), stride=(1, 1), padding=(1, 1), bias=False)
      )
      (partial_conv3): PartialConv(
        (partial_conv): Conv2d(6, 6, kernel_size=(3, 3), stride=(1, 1), padding=(1, 1), bias=False)
      )
    )
    (3): Identity()
  )
  (stage2): Sequential(
    (0): GhostBottleneck(in_channels=32, out_channels=64, dw_kernel_size=3, stride=2, dilation=1, use_se=False, kernel_size=1, act_fn=relu)
    (1): PartialBlock(
      (partial_conv1): PartialConv(
        (partial_conv): Conv2d(10, 10, kernel_size=(3, 3), stride=(1, 1), padding=(1, 1), bias=False)
      )
      (partial_conv2): PartialConv(
        (partial_conv): Conv2d(10, 10, kernel_size=(3, 3), stride=(1, 1), padding=(1, 1), bias=False)
      )
      (partial_conv3): PartialConv(
        (partial_conv): Conv2d(11, 11, kernel_size=(3, 3), stride=(1, 1), padding=(1, 1), bias=False)
      )
    )
    (2): PartialBlock(
      (partial_conv1): PartialConv(
        (partial_conv): Conv2d(10, 10, kernel_size=(3, 3), stride=(1, 1), padding=(1, 1), bias=False)
      )
      (partial_conv2): PartialConv(
        (partial_conv): Conv2d(10, 10, kernel_size=(3, 3), stride=(1, 1), padding=(1, 1), bias=False)
      )
      (partial_conv3): PartialConv(
        (partial_conv): Conv2d(11, 11, kernel_size=(3, 3), stride=(1, 1), padding=(1, 1), bias=False)
      )
    )
    (3): PartialBlock(
      (partial_conv1): PartialConv(
        (partial_conv): Conv2d(10, 10, kernel_size=(3, 3), stride=(1, 1), padding=(1, 1), bias=False)
      )
      (partial_conv2): PartialConv(
        (partial_conv): Conv2d(10, 10, kernel_size=(3, 3), stride=(1, 1), padding=(1, 1), bias=False)
      )
      (partial_conv3): PartialConv(
        (partial_conv): Conv2d(11, 11, kernel_size=(3, 3), stride=(1, 1), padding=(1, 1), bias=False)
      )
    )
    (4): PartialBlock(
      (partial_conv1): PartialConv(
        (partial_conv): Conv2d(10, 10, kernel_size=(3, 3), stride=(1, 1), padding=(1, 1), bias=False)
      )
      (partial_conv2): PartialConv(
        (partial_conv): Conv2d(10, 10, kernel_size=(3, 3), stride=(1, 1), padding=(1, 1), bias=False)
      )
      (partial_conv3): PartialConv(
        (partial_conv): Conv2d(11, 11, kernel_size=(3, 3), stride=(1, 1), padding=(1, 1), bias=False)
      )
    )
    (5): Identity()
  )
  (stage3): Sequential(
    (0): GhostBottleneck(in_channels=64, out_channels=96, dw_kernel_size=3, stride=2, dilation=1, use_se=False, kernel_size=3, act_fn=relu)
    (1): PartialBlock(
      (partial_conv1): PartialConv(
        (partial_conv): Conv2d(16, 16, kernel_size=(3, 3), stride=(1, 1), padding=(1, 1), bias=False)
      )
      (partial_conv2): PartialConv(
        (partial_conv): Conv2d(16, 16, kernel_size=(3, 3), stride=(1, 1), padding=(1, 1), bias=False)
      )
      (partial_conv3): PartialConv(
        (partial_conv): Conv2d(16, 16, kernel_size=(3, 3), stride=(1, 1), padding=(1, 1), bias=False)
      )
    )
    (2): PartialBlock(
      (partial_conv1): PartialConv(
        (partial_conv): Conv2d(16, 16, kernel_size=(3, 3), stride=(1, 1), padding=(1, 1), bias=False)
      )
      (partial_conv2): PartialConv(
        (partial_conv): Conv2d(16, 16, kernel_size=(3, 3), stride=(1, 1), padding=(1, 1), bias=False)
      )
      (partial_conv3): PartialConv(
        (partial_conv): Conv2d(16, 16, kernel_size=(3, 3), stride=(1, 1), padding=(1, 1), bias=False)
      )
    )
    (3): PartialBlock(
      (partial_conv1): PartialConv(
        (partial_conv): Conv2d(16, 16, kernel_size=(3, 3), stride=(1, 1), padding=(1, 1), bias=False)
      )
      (partial_conv2): PartialConv(
        (partial_conv): Conv2d(16, 16, kernel_size=(3, 3), stride=(1, 1), padding=(1, 1), bias=False)
      )
      (partial_conv3): PartialConv(
        (partial_conv): Conv2d(16, 16, kernel_size=(3, 3), stride=(1, 1), padding=(1, 1), bias=False)
      )
    )
    (4): PartialBlock(
      (partial_conv1): PartialConv(
        (partial_conv): Conv2d(16, 16, kernel_size=(3, 3), stride=(1, 1), padding=(1, 1), bias=False)
      )
      (partial_conv2): PartialConv(
        (partial_conv): Conv2d(16, 16, kernel_size=(3, 3), stride=(1, 1), padding=(1, 1), bias=False)
      )
      (partial_conv3): PartialConv(
        (partial_conv): Conv2d(16, 16, kernel_size=(3, 3), stride=(1, 1), padding=(1, 1), bias=False)
      )
    )
    (5): PartialBlock(
      (partial_conv1): PartialConv(
        (partial_conv): Conv2d(16, 16, kernel_size=(3, 3), stride=(1, 1), padding=(1, 1), bias=False)
      )
      (partial_conv2): PartialConv(
        (partial_conv): Conv2d(16, 16, kernel_size=(3, 3), stride=(1, 1), padding=(1, 1), bias=False)
      )
      (partial_conv3): PartialConv(
        (partial_conv): Conv2d(16, 16, kernel_size=(3, 3), stride=(1, 1), padding=(1, 1), bias=False)
      )
    )
    (6): PartialBlock(
      (partial_conv1): PartialConv(
        (partial_conv): Conv2d(16, 16, kernel_size=(3, 3), stride=(1, 1), padding=(1, 1), bias=False)
      )
      (partial_conv2): PartialConv(
        (partial_conv): Conv2d(16, 16, kernel_size=(3, 3), stride=(1, 1), padding=(1, 1), bias=False)
      )
      (partial_conv3): PartialConv(
        (partial_conv): Conv2d(16, 16, kernel_size=(3, 3), stride=(1, 1), padding=(1, 1), bias=False)
      )
    )
    (7): MobileViTBlockV2(
    	 Local representations
    		 Sequential(
      (0): Conv2d(96, 96, kernel_size=(3, 3), stride=(1, 1), groups=96)
      (1): BatchNorm2d(96, eps=1e-05, momentum=0.1, affine=True, track_running_stats=True)
      (2): Hardswish()
    )
    		 Conv2d(96, 96, kernel_size=(1, 1), stride=(1, 1))
    	 Global representations with patch size of 2x2
    		 LinearAttnFFN(embed_dim=96, ffn_dim=192, dropout=0.0, ffn_dropout=0.0, attn_fn=SeparableSelfAttention(
      (qkv_proj): Conv2d(96, 193, kernel_size=(1, 1), stride=(1, 1))
      (attn_dropout): Dropout(p=0.0, inplace=False)
      (out_proj): Conv2d(96, 96, kernel_size=(1, 1), stride=(1, 1))
    ), norm_layer=layer_norm_2d)
    		 LinearAttnFFN(embed_dim=96, ffn_dim=192, dropout=0.0, ffn_dropout=0.0, attn_fn=SeparableSelfAttention(
      (qkv_proj): Conv2d(96, 193, kernel_size=(1, 1), stride=(1, 1))
      (attn_dropout): Dropout(p=0.0, inplace=False)
      (out_proj): Conv2d(96, 96, kernel_size=(1, 1), stride=(1, 1))
    ), norm_layer=layer_norm_2d)
    		 LayerNorm2d(1, 96, eps=1e-05, affine=True)
    		 Conv2d(96, 96, kernel_size=(1, 1), stride=(1, 1))
    		 BatchNorm2d(96, eps=1e-05, momentum=0.1, affine=True, track_running_stats=True)
    )
  )
  (stage4): Sequential(
    (0): GhostBottleneck(in_channels=96, out_channels=128, dw_kernel_size=3, stride=2, dilation=1, use_se=False, kernel_size=3, act_fn=relu)
    (1): PartialBlock(
      (partial_conv1): PartialConv(
        (partial_conv): Conv2d(21, 21, kernel_size=(3, 3), stride=(1, 1), padding=(1, 1), bias=False)
      )
      (partial_conv2): PartialConv(
        (partial_conv): Conv2d(21, 21, kernel_size=(3, 3), stride=(1, 1), padding=(1, 1), bias=False)
      )
      (partial_conv3): PartialConv(
        (partial_conv): Conv2d(22, 22, kernel_size=(3, 3), stride=(1, 1), padding=(1, 1), bias=False)
      )
    )
    (2): PartialBlock(
      (partial_conv1): PartialConv(
        (partial_conv): Conv2d(21, 21, kernel_size=(3, 3), stride=(1, 1), padding=(1, 1), bias=False)
      )
      (partial_conv2): PartialConv(
        (partial_conv): Conv2d(21, 21, kernel_size=(3, 3), stride=(1, 1), padding=(1, 1), bias=False)
      )
      (partial_conv3): PartialConv(
        (partial_conv): Conv2d(22, 22, kernel_size=(3, 3), stride=(1, 1), padding=(1, 1), bias=False)
      )
    )
    (3): PartialBlock(
      (partial_conv1): PartialConv(
        (partial_conv): Conv2d(21, 21, kernel_size=(3, 3), stride=(1, 1), padding=(1, 1), bias=False)
      )
      (partial_conv2): PartialConv(
        (partial_conv): Conv2d(21, 21, kernel_size=(3, 3), stride=(1, 1), padding=(1, 1), bias=False)
      )
      (partial_conv3): PartialConv(
        (partial_conv): Conv2d(22, 22, kernel_size=(3, 3), stride=(1, 1), padding=(1, 1), bias=False)
      )
    )
    (4): PartialBlock(
      (partial_conv1): PartialConv(
        (partial_conv): Conv2d(21, 21, kernel_size=(3, 3), stride=(1, 1), padding=(1, 1), bias=False)
      )
      (partial_conv2): PartialConv(
        (partial_conv): Conv2d(21, 21, kernel_size=(3, 3), stride=(1, 1), padding=(1, 1), bias=False)
      )
      (partial_conv3): PartialConv(
        (partial_conv): Conv2d(22, 22, kernel_size=(3, 3), stride=(1, 1), padding=(1, 1), bias=False)
      )
    )
    (5): PartialBlock(
      (partial_conv1): PartialConv(
        (partial_conv): Conv2d(21, 21, kernel_size=(3, 3), stride=(1, 1), padding=(1, 1), bias=False)
      )
      (partial_conv2): PartialConv(
        (partial_conv): Conv2d(21, 21, kernel_size=(3, 3), stride=(1, 1), padding=(1, 1), bias=False)
      )
      (partial_conv3): PartialConv(
        (partial_conv): Conv2d(22, 22, kernel_size=(3, 3), stride=(1, 1), padding=(1, 1), bias=False)
      )
    )
    (6): PartialBlock(
      (partial_conv1): PartialConv(
        (partial_conv): Conv2d(21, 21, kernel_size=(3, 3), stride=(1, 1), padding=(1, 1), bias=False)
      )
      (partial_conv2): PartialConv(
        (partial_conv): Conv2d(21, 21, kernel_size=(3, 3), stride=(1, 1), padding=(1, 1), bias=False)
      )
      (partial_conv3): PartialConv(
        (partial_conv): Conv2d(22, 22, kernel_size=(3, 3), stride=(1, 1), padding=(1, 1), bias=False)
      )
    )
    (7): MobileViTBlockV2(
    	 Local representations
    		 Sequential(
      (0): Conv2d(128, 128, kernel_size=(3, 3), stride=(1, 1), groups=128)
      (1): BatchNorm2d(128, eps=1e-05, momentum=0.1, affine=True, track_running_stats=True)
      (2): Hardswish()
    )
    		 Conv2d(128, 128, kernel_size=(1, 1), stride=(1, 1))
    	 Global representations with patch size of 2x2
    		 LinearAttnFFN(embed_dim=128, ffn_dim=256, dropout=0.0, ffn_dropout=0.0, attn_fn=SeparableSelfAttention(
      (qkv_proj): Conv2d(128, 257, kernel_size=(1, 1), stride=(1, 1))
      (attn_dropout): Dropout(p=0.0, inplace=False)
      (out_proj): Conv2d(128, 128, kernel_size=(1, 1), stride=(1, 1))
    ), norm_layer=layer_norm_2d)
    		 LinearAttnFFN(embed_dim=128, ffn_dim=256, dropout=0.0, ffn_dropout=0.0, attn_fn=SeparableSelfAttention(
      (qkv_proj): Conv2d(128, 257, kernel_size=(1, 1), stride=(1, 1))
      (attn_dropout): Dropout(p=0.0, inplace=False)
      (out_proj): Conv2d(128, 128, kernel_size=(1, 1), stride=(1, 1))
    ), norm_layer=layer_norm_2d)
    		 LayerNorm2d(1, 128, eps=1e-05, affine=True)
    		 Conv2d(128, 128, kernel_size=(1, 1), stride=(1, 1))
    		 BatchNorm2d(128, eps=1e-05, momentum=0.1, affine=True, track_running_stats=True)
    )
  )
  (stage5): Sequential(
    (0): GhostBottleneck(in_channels=128, out_channels=256, dw_kernel_size=3, stride=2, dilation=1, use_se=False, kernel_size=3, act_fn=relu)
    (1): PartialBlock(
      (partial_conv1): PartialConv(
        (partial_conv): Conv2d(42, 42, kernel_size=(3, 3), stride=(1, 1), padding=(1, 1), bias=False)
      )
      (partial_conv2): PartialConv(
        (partial_conv): Conv2d(42, 42, kernel_size=(3, 3), stride=(1, 1), padding=(1, 1), bias=False)
      )
      (partial_conv3): PartialConv(
        (partial_conv): Conv2d(43, 43, kernel_size=(3, 3), stride=(1, 1), padding=(1, 1), bias=False)
      )
    )
    (2): PartialBlock(
      (partial_conv1): PartialConv(
        (partial_conv): Conv2d(42, 42, kernel_size=(3, 3), stride=(1, 1), padding=(1, 1), bias=False)
      )
      (partial_conv2): PartialConv(
        (partial_conv): Conv2d(42, 42, kernel_size=(3, 3), stride=(1, 1), padding=(1, 1), bias=False)
      )
      (partial_conv3): PartialConv(
        (partial_conv): Conv2d(43, 43, kernel_size=(3, 3), stride=(1, 1), padding=(1, 1), bias=False)
      )
    )
    (3): PartialBlock(
      (partial_conv1): PartialConv(
        (partial_conv): Conv2d(42, 42, kernel_size=(3, 3), stride=(1, 1), padding=(1, 1), bias=False)
      )
      (partial_conv2): PartialConv(
        (partial_conv): Conv2d(42, 42, kernel_size=(3, 3), stride=(1, 1), padding=(1, 1), bias=False)
      )
      (partial_conv3): PartialConv(
        (partial_conv): Conv2d(43, 43, kernel_size=(3, 3), stride=(1, 1), padding=(1, 1), bias=False)
      )
    )
    (4): PartialBlock(
      (partial_conv1): PartialConv(
        (partial_conv): Conv2d(42, 42, kernel_size=(3, 3), stride=(1, 1), padding=(1, 1), bias=False)
      )
      (partial_conv2): PartialConv(
        (partial_conv): Conv2d(42, 42, kernel_size=(3, 3), stride=(1, 1), padding=(1, 1), bias=False)
      )
      (partial_conv3): PartialConv(
        (partial_conv): Conv2d(43, 43, kernel_size=(3, 3), stride=(1, 1), padding=(1, 1), bias=False)
      )
    )
    (5): PartialBlock(
      (partial_conv1): PartialConv(
        (partial_conv): Conv2d(42, 42, kernel_size=(3, 3), stride=(1, 1), padding=(1, 1), bias=False)
      )
      (partial_conv2): PartialConv(
        (partial_conv): Conv2d(42, 42, kernel_size=(3, 3), stride=(1, 1), padding=(1, 1), bias=False)
      )
      (partial_conv3): PartialConv(
        (partial_conv): Conv2d(43, 43, kernel_size=(3, 3), stride=(1, 1), padding=(1, 1), bias=False)
      )
    )
    (6): PartialBlock(
      (partial_conv1): PartialConv(
        (partial_conv): Conv2d(42, 42, kernel_size=(3, 3), stride=(1, 1), padding=(1, 1), bias=False)
      )
      (partial_conv2): PartialConv(
        (partial_conv): Conv2d(42, 42, kernel_size=(3, 3), stride=(1, 1), padding=(1, 1), bias=False)
      )
      (partial_conv3): PartialConv(
        (partial_conv): Conv2d(43, 43, kernel_size=(3, 3), stride=(1, 1), padding=(1, 1), bias=False)
      )
    )
    (7): MobileViTBlockV2(
    	 Local representations
    		 Sequential(
      (0): Conv2d(256, 256, kernel_size=(3, 3), stride=(1, 1), groups=256)
      (1): BatchNorm2d(256, eps=1e-05, momentum=0.1, affine=True, track_running_stats=True)
      (2): Hardswish()
    )
    		 Conv2d(256, 256, kernel_size=(1, 1), stride=(1, 1))
    	 Global representations with patch size of 2x2
    		 LinearAttnFFN(embed_dim=256, ffn_dim=512, dropout=0.0, ffn_dropout=0.0, attn_fn=SeparableSelfAttention(
      (qkv_proj): Conv2d(256, 513, kernel_size=(1, 1), stride=(1, 1))
      (attn_dropout): Dropout(p=0.0, inplace=False)
      (out_proj): Conv2d(256, 256, kernel_size=(1, 1), stride=(1, 1))
    ), norm_layer=layer_norm_2d)
    		 LinearAttnFFN(embed_dim=256, ffn_dim=512, dropout=0.0, ffn_dropout=0.0, attn_fn=SeparableSelfAttention(
      (qkv_proj): Conv2d(256, 513, kernel_size=(1, 1), stride=(1, 1))
      (attn_dropout): Dropout(p=0.0, inplace=False)
      (out_proj): Conv2d(256, 256, kernel_size=(1, 1), stride=(1, 1))
    ), norm_layer=layer_norm_2d)
    		 LayerNorm2d(1, 256, eps=1e-05, affine=True)
    		 Conv2d(256, 256, kernel_size=(1, 1), stride=(1, 1))
    		 BatchNorm2d(256, eps=1e-05, momentum=0.1, affine=True, track_running_stats=True)
    )
  )
  (conv_1x1_exp): Sequential(
    (0): Conv2d(256, 960, kernel_size=(1, 1), stride=(1, 1))
    (1): BatchNorm2d(960, eps=1e-05, momentum=0.1, affine=True, track_running_stats=True)
    (2): ReLU()
  )
  (classifier): Sequential(
    (0): GlobalPool(type=mean)
    (1): Linear(in_features=960, out_features=5, bias=True)
  )
)
[2025-08-28 21:26:11 food_classification] (file: utils.py func: summery_model line: 52): INFO Overall parameters=   2.511M
[2025-08-28 21:26:12 food_classification] (file: utils.py func: summery_model line: 71): INFO Overall MACs (Thop)**=   388.8M
[2025-08-28 21:26:12 food_classification] (file: utils.py func: summery_model line: 82): INFO Overall FLOPs (Thop)**=   777.6M
…
