…
  USE_CHECKPOINT: false
  WARMUP_EPOCHS: 20
  WARMUP_LR: 3.125e-08
  WEIGHT_DECAY: 0.05

[2025-08-26 21:32:25 food_classification] (file: dataset.py func: build_dataset line: 21): INFO Building dataset with default transform.
[2025-08-26 21:32:25 food_classification] (file: dataset.py func: build_dataset line: 21): INFO Building dataset with default transform.
[2025-08-26 21:32:25 food_classification] (file: main.py func: main line: 217): INFO Creating model:gs_net
[2025-08-26 21:32:25 food_classification] (file: main.py func: main line: 221): INFO MobileShuffleV2(
  (head): Sequential(
    (0): Conv2d(3, 16, kernel_size=(3, 3), stride=(2, 2), padding=(1, 1))
    (1): BatchNorm2d(16, eps=1e-05, momentum=0.1, affine=True, track_running_stats=True)
    (2): Hardswish()
  )
  (layer_1): Sequential(
    (ms_s_1_idx-0): LocalGlobalAggregate(
      (loc): InvertedResidual(
        (block): Sequential(
          (0): Sequential(
            (0): Conv2d(16, 16, kernel_size=(3, 3), stride=(1, 1), padding=(1, 1), groups=16, bias=False)
            (1): BatchNorm2d(16, eps=1e-05, momentum=0.1, affine=True, track_running_stats=True)
            (2): HardSwish(
              (act): Hardswish()
            )
          )
          (1): Sequential(
            (0): Conv2d(16, 16, kernel_size=(1, 1), stride=(1, 1), bias=False)
            (1): BatchNorm2d(16, eps=1e-05, momentum=0.1, affine=True, track_running_stats=True)
          )
        )
      )
      (gbl): ShuffleInvertedResidual(
        (block): Sequential(
          (0): ShuffleConv(
            (block): Sequential(
              (0): Conv2d(16, 16, kernel_size=(3, 3), stride=(1, 1), padding=(1, 1), groups=16)
              (1): BatchNorm2d(16, eps=1e-05, momentum=0.1, affine=True, track_running_stats=True)
              (2): ReLU(
                (act): ReLU()
              )
            )
          )
          (1): Sequential(
            (0): Conv2d(16, 16, kernel_size=(1, 1), stride=(1, 1), bias=False)
            (1): BatchNorm2d(16, eps=1e-05, momentum=0.1, affine=True, track_running_stats=True)
          )
        )
      )
    )
  )
  (layer_2): Sequential(
    (ms_s_2_idx-0): LocalGlobalAggregate(
      (loc): InvertedResidual(
        (block): Sequential(
          (0): Sequential(
            (0): Conv2d(16, 64, kernel_size=(1, 1), stride=(1, 1), bias=False)
            (1): BatchNorm2d(64, eps=1e-05, momentum=0.1, affine=True, track_running_stats=True)
            (2): HardSwish(
              (act): Hardswish()
            )
          )
          (1): Sequential(
            (0): Conv2d(64, 64, kernel_size=(3, 3), stride=(2, 2), padding=(1, 1), groups=64, bias=False)
            (1): BatchNorm2d(64, eps=1e-05, momentum=0.1, affine=True, track_running_stats=True)
            (2): HardSwish(
              (act): Hardswish()
            )
          )
          (2): Sequential(
            (0): Conv2d(64, 24, kernel_size=(1, 1), stride=(1, 1), bias=False)
            (1): BatchNorm2d(24, eps=1e-05, momentum=0.1, affine=True, track_running_stats=True)
          )
        )
      )
      (gbl): ShuffleInvertedResidual(
        (block): Sequential(
          (0): Sequential(
            (0): Conv2d(16, 64, kernel_size=(1, 1), stride=(1, 1), bias=False)
            (1): BatchNorm2d(64, eps=1e-05, momentum=0.1, affine=True, track_running_stats=True)
            (2): HardSwish(
              (act): Hardswish()
            )
          )
          (1): ShuffleConv(
            (block): Sequential(
              (0): Conv2d(64, 64, kernel_size=(3, 3), stride=(2, 2), padding=(1, 1), groups=64)
              (1): BatchNorm2d(64, eps=1e-05, momentum=0.1, affine=True, track_running_stats=True)
              (2): ReLU(
                (act): ReLU()
              )
            )
          )
          (2): Sequential(
            (0): Conv2d(64, 24, kernel_size=(1, 1), stride=(1, 1), bias=False)
            (1): BatchNorm2d(24, eps=1e-05, momentum=0.1, affine=True, track_running_stats=True)
          )
        )
      )
    )
    (ms_s_1_idx-1): LocalGlobalAggregate(
      (loc): InvertedResidual(
        (block): Sequential(
          (0): Sequential(
            (0): Conv2d(24, 72, kernel_size=(1, 1), stride=(1, 1), bias=False)
            (1): BatchNorm2d(72, eps=1e-05, momentum=0.1, affine=True, track_running_stats=True)
            (2): HardSwish(
              (act): Hardswish()
            )
          )
          (1): Sequential(
            (0): Conv2d(72, 72, kernel_size=(3, 3), stride=(1, 1), padding=(1, 1), groups=72, bias=False)
            (1): BatchNorm2d(72, eps=1e-05, momentum=0.1, affine=True, track_running_stats=True)
            (2): HardSwish(
              (act): Hardswish()
            )
          )
          (2): Sequential(
            (0): Conv2d(72, 24, kernel_size=(1, 1), stride=(1, 1), bias=False)
            (1): BatchNorm2d(24, eps=1e-05, momentum=0.1, affine=True, track_running_stats=True)
          )
        )
      )
      (gbl): ShuffleInvertedResidual(
        (block): Sequential(
          (0): Sequential(
            (0): Conv2d(24, 72, kernel_size=(1, 1), stride=(1, 1), bias=False)
            (1): BatchNorm2d(72, eps=1e-05, momentum=0.1, affine=True, track_running_stats=True)
            (2): HardSwish(
              (act): Hardswish()
            )
          )
          (1): ShuffleConv(
            (block): Sequential(
              (0): Conv2d(72, 72, kernel_size=(3, 3), stride=(1, 1), padding=(1, 1), groups=72)
              (1): BatchNorm2d(72, eps=1e-05, momentum=0.1, affine=True, track_running_stats=True)
              (2): ReLU(
                (act): ReLU()
              )
            )
          )
          (2): Sequential(
            (0): Conv2d(72, 24, kernel_size=(1, 1), stride=(1, 1), bias=False)
            (1): BatchNorm2d(24, eps=1e-05, momentum=0.1, affine=True, track_running_stats=True)
          )
        )
      )
    )
  )
  (layer_3): Sequential(
    (ms_s_2_idx-0): LocalGlobalAggregate(
      (loc): InvertedResidual(
        (block): Sequential(
          (0): Sequential(
            (0): Conv2d(24, 72, kernel_size=(1, 1), stride=(1, 1), bias=False)
            (1): BatchNorm2d(72, eps=1e-05, momentum=0.1, affine=True, track_running_stats=True)
            (2): HardSwish(
              (act): Hardswish()
            )
          )
          (1): Sequential(
            (0): Conv2d(72, 72, kernel_size=(3, 3), stride=(2, 2), padding=(1, 1), groups=72, bias=False)
            (1): BatchNorm2d(72, eps=1e-05, momentum=0.1, affine=True, track_running_stats=True)
            (2): HardSwish(
              (act): Hardswish()
            )
          )
          (2): Sequential(
            (0): Conv2d(72, 40, kernel_size=(1, 1), stride=(1, 1), bias=False)
            (1): BatchNorm2d(40, eps=1e-05, momentum=0.1, affine=True, track_running_stats=True)
          )
        )
      )
      (gbl): ShuffleInvertedResidual(
        (block): Sequential(
          (0): Sequential(
            (0): Conv2d(24, 72, kernel_size=(1, 1), stride=(1, 1), bias=False)
            (1): BatchNorm2d(72, eps=1e-05, momentum=0.1, affine=True, track_running_stats=True)
            (2): HardSwish(
              (act): Hardswish()
            )
          )
          (1): ShuffleConv(
            (block): Sequential(
              (0): Conv2d(72, 72, kernel_size=(3, 3), stride=(2, 2), padding=(1, 1), groups=72)
              (1): BatchNorm2d(72, eps=1e-05, momentum=0.1, affine=True, track_running_stats=True)
              (2): ReLU(
                (act): ReLU()
              )
            )
          )
          (2): Sequential(
            (0): Conv2d(72, 40, kernel_size=(1, 1), stride=(1, 1), bias=False)
            (1): BatchNorm2d(40, eps=1e-05, momentum=0.1, affine=True, track_running_stats=True)
          )
        )
      )
    )
    (ms_s_1_idx-1): LocalGlobalAggregate(
      (loc): InvertedResidual(
        (block): Sequential(
          (0): Sequential(
            (0): Conv2d(40, 120, kernel_size=(1, 1), stride=(1, 1), bias=False)
            (1): BatchNorm2d(120, eps=1e-05, momentum=0.1, affine=True, track_running_stats=True)
            (2): HardSwish(
              (act): Hardswish()
            )
          )
          (1): Sequential(
            (0): Conv2d(120, 120, kernel_size=(3, 3), stride=(1, 1), padding=(1, 1), groups=120, bias=False)
            (1): BatchNorm2d(120, eps=1e-05, momentum=0.1, affine=True, track_running_stats=True)
            (2): HardSwish(
              (act): Hardswish()
            )
          )
          (2): Sequential(
            (0): Conv2d(120, 40, kernel_size=(1, 1), stride=(1, 1), bias=False)
            (1): BatchNorm2d(40, eps=1e-05, momentum=0.1, affine=True, track_running_stats=True)
          )
        )
      )
      (gbl): ShuffleInvertedResidual(
        (block): Sequential(
          (0): Sequential(
            (0): Conv2d(40, 120, kernel_size=(1, 1), stride=(1, 1), bias=False)
            (1): BatchNorm2d(120, eps=1e-05, momentum=0.1, affine=True, track_running_stats=True)
            (2): HardSwish(
              (act): Hardswish()
            )
          )
          (1): ShuffleConv(
            (block): Sequential(
              (0): Conv2d(120, 120, kernel_size=(3, 3), stride=(1, 1), padding=(1, 1), groups=120)
              (1): BatchNorm2d(120, eps=1e-05, momentum=0.1, affine=True, track_running_stats=True)
              (2): ReLU(
                (act): ReLU()
              )
            )
          )
          (2): Sequential(
            (0): Conv2d(120, 40, kernel_size=(1, 1), stride=(1, 1), bias=False)
            (1): BatchNorm2d(40, eps=1e-05, momentum=0.1, affine=True, track_running_stats=True)
          )
        )
      )
    )
    (ms_s_1_idx-2): LocalGlobalAggregate(
      (loc): InvertedResidual(
        (block): Sequential(
          (0): Sequential(
            (0): Conv2d(40, 120, kernel_size=(1, 1), stride=(1, 1), bias=False)
            (1): BatchNorm2d(120, eps=1e-05, momentum=0.1, affine=True, track_running_stats=True)
            (2): HardSwish(
              (act): Hardswish()
            )
          )
          (1): Sequential(
            (0): Conv2d(120, 120, kernel_size=(3, 3), stride=(1, 1), padding=(1, 1), groups=120, bias=False)
            (1): BatchNorm2d(120, eps=1e-05, momentum=0.1, affine=True, track_running_stats=True)
            (2): HardSwish(
              (act): Hardswish()
            )
          )
          (2): Sequential(
            (0): Conv2d(120, 40, kernel_size=(1, 1), stride=(1, 1), bias=False)
            (1): BatchNorm2d(40, eps=1e-05, momentum=0.1, affine=True, track_running_stats=True)
          )
        )
      )
      (gbl): ShuffleInvertedResidual(
        (block): Sequential(
          (0): Sequential(
            (0): Conv2d(40, 120, kernel_size=(1, 1), stride=(1, 1), bias=False)
            (1): BatchNorm2d(120, eps=1e-05, momentum=0.1, affine=True, track_running_stats=True)
            (2): HardSwish(
              (act): Hardswish()
            )
          )
          (1): ShuffleConv(
            (block): Sequential(
              (0): Conv2d(120, 120, kernel_size=(3, 3), stride=(1, 1), padding=(1, 1), groups=120)
              (1): BatchNorm2d(120, eps=1e-05, momentum=0.1, affine=True, track_running_stats=True)
              (2): ReLU(
                (act): ReLU()
              )
            )
          )
          (2): Sequential(
            (0): Conv2d(120, 40, kernel_size=(1, 1), stride=(1, 1), bias=False)
            (1): BatchNorm2d(40, eps=1e-05, momentum=0.1, affine=True, track_running_stats=True)
          )
        )
      )
    )
  )
  (layer_4): Sequential(
    (ms_s_2_idx-0): LocalGlobalAggregate(
      (loc): InvertedResidual(
        (block): Sequential(
          (0): Sequential(
            (0): Conv2d(40, 240, kernel_size=(1, 1), stride=(1, 1), bias=False)
            (1): BatchNorm2d(240, eps=1e-05, momentum=0.1, affine=True, track_running_stats=True)
            (2): HardSwish(
              (act): Hardswish()
            )
          )
          (1): Sequential(
            (0): Conv2d(240, 240, kernel_size=(3, 3), stride=(2, 2), padding=(1, 1), groups=240, bias=False)
            (1): BatchNorm2d(240, eps=1e-05, momentum=0.1, affine=True, track_running_stats=True)
            (2): HardSwish(
              (act): Hardswish()
            )
          )
          (2): Sequential(
            (0): Conv2d(240, 80, kernel_size=(1, 1), stride=(1, 1), bias=False)
            (1): BatchNorm2d(80, eps=1e-05, momentum=0.1, affine=True, track_running_stats=True)
          )
        )
      )
      (gbl): ShuffleInvertedResidual(
        (block): Sequential(
          (0): Sequential(
            (0): Conv2d(40, 240, kernel_size=(1, 1), stride=(1, 1), bias=False)
            (1): BatchNorm2d(240, eps=1e-05, momentum=0.1, affine=True, track_running_stats=True)
            (2): HardSwish(
              (act): Hardswish()
            )
          )
          (1): ShuffleConv(
            (block): Sequential(
              (0): Conv2d(240, 240, kernel_size=(3, 3), stride=(2, 2), padding=(1, 1), groups=240)
              (1): BatchNorm2d(240, eps=1e-05, momentum=0.1, affine=True, track_running_stats=True)
              (2): ReLU(
                (act): ReLU()
              )
            )
          )
          (2): Sequential(
            (0): Conv2d(240, 80, kernel_size=(1, 1), stride=(1, 1), bias=False)
            (1): BatchNorm2d(80, eps=1e-05, momentum=0.1, affine=True, track_running_stats=True)
          )
        )
      )
    )
    (ms_s_1_idx-1): LocalGlobalAggregate(
      (loc): InvertedResidual(
        (block): Sequential(
          (0): Sequential(
            (0): Conv2d(80, 200, kernel_size=(1, 1), stride=(1, 1), bias=False)
            (1): BatchNorm2d(200, eps=1e-05, momentum=0.1, affine=True, track_running_stats=True)
            (2): HardSwish(
              (act): Hardswish()
            )
          )
          (1): Sequential(
            (0): Conv2d(200, 200, kernel_size=(3, 3), stride=(1, 1), padding=(1, 1), groups=200, bias=False)
            (1): BatchNorm2d(200, eps=1e-05, momentum=0.1, affine=True, track_running_stats=True)
            (2): HardSwish(
              (act): Hardswish()
            )
          )
          (2): Sequential(
            (0): Conv2d(200, 80, kernel_size=(1, 1), stride=(1, 1), bias=False)
            (1): BatchNorm2d(80, eps=1e-05, momentum=0.1, affine=True, track_running_stats=True)
          )
        )
      )
      (gbl): ShuffleInvertedResidual(
        (block): Sequential(
          (0): Sequential(
            (0): Conv2d(80, 200, kernel_size=(1, 1), stride=(1, 1), bias=False)
            (1): BatchNorm2d(200, eps=1e-05, momentum=0.1, affine=True, track_running_stats=True)
            (2): HardSwish(
              (act): Hardswish()
            )
          )
          (1): ShuffleConv(
            (block): Sequential(
              (0): Conv2d(200, 200, kernel_size=(3, 3), stride=(1, 1), padding=(1, 1), groups=200)
              (1): BatchNorm2d(200, eps=1e-05, momentum=0.1, affine=True, track_running_stats=True)
              (2): ReLU(
                (act): ReLU()
              )
            )
          )
          (2): Sequential(
            (0): Conv2d(200, 80, kernel_size=(1, 1), stride=(1, 1), bias=False)
            (1): BatchNorm2d(80, eps=1e-05, momentum=0.1, affine=True, track_running_stats=True)
          )
        )
      )
    )
    (ms_s_1_idx-2): LocalGlobalAggregate(
      (loc): InvertedResidual(
        (block): Sequential(
          (0): Sequential(
            (0): Conv2d(80, 184, kernel_size=(1, 1), stride=(1, 1), bias=False)
            (1): BatchNorm2d(184, eps=1e-05, momentum=0.1, affine=True, track_running_stats=True)
            (2): HardSwish(
              (act): Hardswish()
            )
          )
          (1): Sequential(
            (0): Conv2d(184, 184, kernel_size=(3, 3), stride=(1, 1), padding=(1, 1), groups=184, bias=False)
            (1): BatchNorm2d(184, eps=1e-05, momentum=0.1, affine=True, track_running_stats=True)
            (2): HardSwish(
              (act): Hardswish()
            )
          )
          (2): Sequential(
            (0): Conv2d(184, 80, kernel_size=(1, 1), stride=(1, 1), bias=False)
            (1): BatchNorm2d(80, eps=1e-05, momentum=0.1, affine=True, track_running_stats=True)
          )
        )
      )
      (gbl): ShuffleInvertedResidual(
        (block): Sequential(
          (0): Sequential(
            (0): Conv2d(80, 184, kernel_size=(1, 1), stride=(1, 1), bias=False)
            (1): BatchNorm2d(184, eps=1e-05, momentum=0.1, affine=True, track_running_stats=True)
            (2): HardSwish(
              (act): Hardswish()
            )
          )
          (1): ShuffleConv(
            (block): Sequential(
              (0): Conv2d(184, 184, kernel_size=(3, 3), stride=(1, 1), padding=(1, 1), groups=184)
              (1): BatchNorm2d(184, eps=1e-05, momentum=0.1, affine=True, track_running_stats=True)
              (2): ReLU(
                (act): ReLU()
              )
            )
          )
          (2): Sequential(
            (0): Conv2d(184, 80, kernel_size=(1, 1), stride=(1, 1), bias=False)
            (1): BatchNorm2d(80, eps=1e-05, momentum=0.1, affine=True, track_running_stats=True)
          )
        )
      )
    )
  )
  (layer_5): Sequential(
    (ms_s_2_idx-0): LocalGlobalAggregate(
      (loc): InvertedResidual(
        (block): Sequential(
          (0): Sequential(
            (0): Conv2d(80, 480, kernel_size=(1, 1), stride=(1, 1), bias=False)
            (1): BatchNorm2d(480, eps=1e-05, momentum=0.1, affine=True, track_running_stats=True)
            (2): HardSwish(
              (act): Hardswish()
            )
          )
          (1): Sequential(
            (0): Conv2d(480, 480, kernel_size=(3, 3), stride=(2, 2), padding=(1, 1), groups=480, bias=False)
            (1): BatchNorm2d(480, eps=1e-05, momentum=0.1, affine=True, track_running_stats=True)
            (2): HardSwish(
              (act): Hardswish()
            )
          )
          (2): Sequential(
            (0): Conv2d(480, 160, kernel_size=(1, 1), stride=(1, 1), bias=False)
            (1): BatchNorm2d(160, eps=1e-05, momentum=0.1, affine=True, track_running_stats=True)
          )
        )
      )
      (gbl): ShuffleInvertedResidual(
        (block): Sequential(
          (0): Sequential(
            (0): Conv2d(80, 480, kernel_size=(1, 1), stride=(1, 1), bias=False)
            (1): BatchNorm2d(480, eps=1e-05, momentum=0.1, affine=True, track_running_stats=True)
            (2): HardSwish(
              (act): Hardswish()
            )
          )
          (1): ShuffleConv(
            (block): Sequential(
              (0): Conv2d(480, 480, kernel_size=(3, 3), stride=(2, 2), padding=(1, 1), groups=480)
              (1): BatchNorm2d(480, eps=1e-05, momentum=0.1, affine=True, track_running_stats=True)
              (2): ReLU(
                (act): ReLU()
              )
            )
          )
          (2): Sequential(
            (0): Conv2d(480, 160, kernel_size=(1, 1), stride=(1, 1), bias=False)
            (1): BatchNorm2d(160, eps=1e-05, momentum=0.1, affine=True, track_running_stats=True)
          )
        )
      )
    )
  )
  (tail): Sequential(
    (0): Conv2d(160, 1280, kernel_size=(1, 1), stride=(1, 1))
    (1): BatchNorm2d(160, eps=1e-05, momentum=0.1, affine=True, track_running_stats=True)
    (2): Hardswish()
  )
  (classifier): Sequential(
    (0): GlobalPool(type=mean)
    (1): Linear(in_features=1280, out_features=101, bias=True)
  )
)
[2025-08-26 21:32:25 food_classification] (file: utils.py func: summery_model line: 52): INFO Overall parameters=   0.852M
[2025-08-27 09:14:52 food_classification] (file: main.py func: main line: 211): INFO Full config saved to ./output/food101/gs_net/default/config.json
[2025-08-27 09:14:52 food_classification] (file: main.py func: main line: 213): INFO AF_NET:
…
  USE_CHECKPOINT: false
  WARMUP_EPOCHS: 20
  WARMUP_LR: 3.125e-08
  WEIGHT_DECAY: 0.05

[2025-08-27 09:15:38 food_classification] (file: dataset.py func: build_dataset line: 21): INFO Building dataset with default transform.
[2025-08-27 09:15:38 food_classification] (file: dataset.py func: build_dataset line: 21): INFO Building dataset with default transform.
[2025-08-27 09:15:38 food_classification] (file: main.py func: main line: 217): INFO Creating model:gs_net
[2025-08-27 09:15:38 food_classification] (file: main.py func: main line: 221): INFO MobileShuffleV2(
  (head): Sequential(
    (0): Conv2d(3, 16, kernel_size=(3, 3), stride=(2, 2), padding=(1, 1))
    (1): BatchNorm2d(16, eps=1e-05, momentum=0.1, affine=True, track_running_stats=True)
    (2): Hardswish()
  )
  (layer_1): Sequential(
    (ms_s_1_idx-0): LocalGlobalAggregate(
      (loc): InvertedResidual(
        (block): Sequential(
          (0): Sequential(
            (0): Conv2d(16, 16, kernel_size=(3, 3), stride=(1, 1), padding=(1, 1), groups=16, bias=False)
            (1): BatchNorm2d(16, eps=1e-05, momentum=0.1, affine=True, track_running_stats=True)
            (2): HardSwish(
              (act): Hardswish()
            )
          )
          (1): Sequential(
            (0): Conv2d(16, 16, kernel_size=(1, 1), stride=(1, 1), bias=False)
            (1): BatchNorm2d(16, eps=1e-05, momentum=0.1, affine=True, track_running_stats=True)
          )
        )
      )
      (gbl): ShuffleInvertedResidual(
        (block): Sequential(
          (0): ShuffleConv(
            (block): Sequential(
              (0): Conv2d(16, 16, kernel_size=(3, 3), stride=(1, 1), padding=(1, 1), groups=16)
              (1): BatchNorm2d(16, eps=1e-05, momentum=0.1, affine=True, track_running_stats=True)
              (2): ReLU(
                (act): ReLU()
              )
            )
          )
          (1): Sequential(
            (0): Conv2d(16, 16, kernel_size=(1, 1), stride=(1, 1), bias=False)
            (1): BatchNorm2d(16, eps=1e-05, momentum=0.1, affine=True, track_running_stats=True)
          )
        )
      )
    )
  )
  (layer_2): Sequential(
    (ms_s_2_idx-0): LocalGlobalAggregate(
      (loc): InvertedResidual(
        (block): Sequential(
          (0): Sequential(
            (0): Conv2d(16, 64, kernel_size=(1, 1), stride=(1, 1), bias=False)
            (1): BatchNorm2d(64, eps=1e-05, momentum=0.1, affine=True, track_running_stats=True)
            (2): HardSwish(
              (act): Hardswish()
            )
          )
          (1): Sequential(
            (0): Conv2d(64, 64, kernel_size=(3, 3), stride=(2, 2), padding=(1, 1), groups=64, bias=False)
            (1): BatchNorm2d(64, eps=1e-05, momentum=0.1, affine=True, track_running_stats=True)
            (2): HardSwish(
              (act): Hardswish()
            )
          )
          (2): Sequential(
            (0): Conv2d(64, 24, kernel_size=(1, 1), stride=(1, 1), bias=False)
            (1): BatchNorm2d(24, eps=1e-05, momentum=0.1, affine=True, track_running_stats=True)
          )
        )
      )
      (gbl): ShuffleInvertedResidual(
        (block): Sequential(
          (0): Sequential(
            (0): Conv2d(16, 64, kernel_size=(1, 1), stride=(1, 1), bias=False)
            (1): BatchNorm2d(64, eps=1e-05, momentum=0.1, affine=True, track_running_stats=True)
            (2): HardSwish(
              (act): Hardswish()
            )
          )
          (1): ShuffleConv(
            (block): Sequential(
              (0): Conv2d(64, 64, kernel_size=(3, 3), stride=(2, 2), padding=(1, 1), groups=64)
              (1): BatchNorm2d(64, eps=1e-05, momentum=0.1, affine=True, track_running_stats=True)
              (2): ReLU(
                (act): ReLU()
              )
            )
          )
          (2): Sequential(
            (0): Conv2d(64, 24, kernel_size=(1, 1), stride=(1, 1), bias=False)
            (1): BatchNorm2d(24, eps=1e-05, momentum=0.1, affine=True, track_running_stats=True)
          )
        )
      )
    )
    (ms_s_1_idx-1): LocalGlobalAggregate(
      (loc): InvertedResidual(
        (block): Sequential(
          (0): Sequential(
            (0): Conv2d(24, 72, kernel_size=(1, 1), stride=(1, 1), bias=False)
            (1): BatchNorm2d(72, eps=1e-05, momentum=0.1, affine=True, track_running_stats=True)
            (2): HardSwish(
              (act): Hardswish()
            )
          )
          (1): Sequential(
            (0): Conv2d(72, 72, kernel_size=(3, 3), stride=(1, 1), padding=(1, 1), groups=72, bias=False)
            (1): BatchNorm2d(72, eps=1e-05, momentum=0.1, affine=True, track_running_stats=True)
            (2): HardSwish(
              (act): Hardswish()
            )
          )
          (2): Sequential(
            (0): Conv2d(72, 24, kernel_size=(1, 1), stride=(1, 1), bias=False)
            (1): BatchNorm2d(24, eps=1e-05, momentum=0.1, affine=True, track_running_stats=True)
          )
        )
      )
      (gbl): ShuffleInvertedResidual(
        (block): Sequential(
          (0): Sequential(
            (0): Conv2d(24, 72, kernel_size=(1, 1), stride=(1, 1), bias=False)
            (1): BatchNorm2d(72, eps=1e-05, momentum=0.1, affine=True, track_running_stats=True)
            (2): HardSwish(
              (act): Hardswish()
            )
          )
          (1): ShuffleConv(
            (block): Sequential(
              (0): Conv2d(72, 72, kernel_size=(3, 3), stride=(1, 1), padding=(1, 1), groups=72)
              (1): BatchNorm2d(72, eps=1e-05, momentum=0.1, affine=True, track_running_stats=True)
              (2): ReLU(
                (act): ReLU()
              )
            )
          )
          (2): Sequential(
            (0): Conv2d(72, 24, kernel_size=(1, 1), stride=(1, 1), bias=False)
            (1): BatchNorm2d(24, eps=1e-05, momentum=0.1, affine=True, track_running_stats=True)
          )
        )
      )
    )
  )
  (layer_3): Sequential(
    (ms_s_2_idx-0): LocalGlobalAggregate(
      (loc): InvertedResidual(
        (block): Sequential(
          (0): Sequential(
            (0): Conv2d(24, 72, kernel_size=(1, 1), stride=(1, 1), bias=False)
            (1): BatchNorm2d(72, eps=1e-05, momentum=0.1, affine=True, track_running_stats=True)
            (2): HardSwish(
              (act): Hardswish()
            )
          )
          (1): Sequential(
            (0): Conv2d(72, 72, kernel_size=(3, 3), stride=(2, 2), padding=(1, 1), groups=72, bias=False)
            (1): BatchNorm2d(72, eps=1e-05, momentum=0.1, affine=True, track_running_stats=True)
            (2): HardSwish(
              (act): Hardswish()
            )
          )
          (2): Sequential(
            (0): Conv2d(72, 40, kernel_size=(1, 1), stride=(1, 1), bias=False)
            (1): BatchNorm2d(40, eps=1e-05, momentum=0.1, affine=True, track_running_stats=True)
          )
        )
      )
      (gbl): ShuffleInvertedResidual(
        (block): Sequential(
          (0): Sequential(
            (0): Conv2d(24, 72, kernel_size=(1, 1), stride=(1, 1), bias=False)
            (1): BatchNorm2d(72, eps=1e-05, momentum=0.1, affine=True, track_running_stats=True)
            (2): HardSwish(
              (act): Hardswish()
            )
          )
          (1): ShuffleConv(
            (block): Sequential(
              (0): Conv2d(72, 72, kernel_size=(3, 3), stride=(2, 2), padding=(1, 1), groups=72)
              (1): BatchNorm2d(72, eps=1e-05, momentum=0.1, affine=True, track_running_stats=True)
              (2): ReLU(
                (act): ReLU()
              )
            )
          )
          (2): Sequential(
            (0): Conv2d(72, 40, kernel_size=(1, 1), stride=(1, 1), bias=False)
            (1): BatchNorm2d(40, eps=1e-05, momentum=0.1, affine=True, track_running_stats=True)
          )
        )
      )
    )
    (ms_s_1_idx-1): LocalGlobalAggregate(
      (loc): InvertedResidual(
        (block): Sequential(
          (0): Sequential(
            (0): Conv2d(40, 120, kernel_size=(1, 1), stride=(1, 1), bias=False)
            (1): BatchNorm2d(120, eps=1e-05, momentum=0.1, affine=True, track_running_stats=True)
            (2): HardSwish(
              (act): Hardswish()
            )
          )
          (1): Sequential(
            (0): Conv2d(120, 120, kernel_size=(3, 3), stride=(1, 1), padding=(1, 1), groups=120, bias=False)
            (1): BatchNorm2d(120, eps=1e-05, momentum=0.1, affine=True, track_running_stats=True)
            (2): HardSwish(
              (act): Hardswish()
            )
          )
          (2): Sequential(
            (0): Conv2d(120, 40, kernel_size=(1, 1), stride=(1, 1), bias=False)
            (1): BatchNorm2d(40, eps=1e-05, momentum=0.1, affine=True, track_running_stats=True)
          )
        )
      )
      (gbl): ShuffleInvertedResidual(
        (block): Sequential(
          (0): Sequential(
            (0): Conv2d(40, 120, kernel_size=(1, 1), stride=(1, 1), bias=False)
            (1): BatchNorm2d(120, eps=1e-05, momentum=0.1, affine=True, track_running_stats=True)
            (2): HardSwish(
              (act): Hardswish()
            )
          )
          (1): ShuffleConv(
            (block): Sequential(
              (0): Conv2d(120, 120, kernel_size=(3, 3), stride=(1, 1), padding=(1, 1), groups=120)
              (1): BatchNorm2d(120, eps=1e-05, momentum=0.1, affine=True, track_running_stats=True)
              (2): ReLU(
                (act): ReLU()
              )
            )
          )
          (2): Sequential(
            (0): Conv2d(120, 40, kernel_size=(1, 1), stride=(1, 1), bias=False)
            (1): BatchNorm2d(40, eps=1e-05, momentum=0.1, affine=True, track_running_stats=True)
          )
        )
      )
    )
    (ms_s_1_idx-2): LocalGlobalAggregate(
      (loc): InvertedResidual(
        (block): Sequential(
          (0): Sequential(
            (0): Conv2d(40, 120, kernel_size=(1, 1), stride=(1, 1), bias=False)
            (1): BatchNorm2d(120, eps=1e-05, momentum=0.1, affine=True, track_running_stats=True)
            (2): HardSwish(
              (act): Hardswish()
            )
          )
          (1): Sequential(
            (0): Conv2d(120, 120, kernel_size=(3, 3), stride=(1, 1), padding=(1, 1), groups=120, bias=False)
            (1): BatchNorm2d(120, eps=1e-05, momentum=0.1, affine=True, track_running_stats=True)
            (2): HardSwish(
              (act): Hardswish()
            )
          )
          (2): Sequential(
            (0): Conv2d(120, 40, kernel_size=(1, 1), stride=(1, 1), bias=False)
            (1): BatchNorm2d(40, eps=1e-05, momentum=0.1, affine=True, track_running_stats=True)
          )
        )
      )
      (gbl): ShuffleInvertedResidual(
        (block): Sequential(
          (0): Sequential(
            (0): Conv2d(40, 120, kernel_size=(1, 1), stride=(1, 1), bias=False)
            (1): BatchNorm2d(120, eps=1e-05, momentum=0.1, affine=True, track_running_stats=True)
            (2): HardSwish(
              (act): Hardswish()
            )
          )
          (1): ShuffleConv(
            (block): Sequential(
              (0): Conv2d(120, 120, kernel_size=(3, 3), stride=(1, 1), padding=(1, 1), groups=120)
              (1): BatchNorm2d(120, eps=1e-05, momentum=0.1, affine=True, track_running_stats=True)
              (2): ReLU(
                (act): ReLU()
              )
            )
          )
          (2): Sequential(
            (0): Conv2d(120, 40, kernel_size=(1, 1), stride=(1, 1), bias=False)
            (1): BatchNorm2d(40, eps=1e-05, momentum=0.1, affine=True, track_running_stats=True)
          )
        )
      )
    )
  )
  (layer_4): Sequential(
    (ms_s_2_idx-0): LocalGlobalAggregate(
      (loc): InvertedResidual(
        (block): Sequential(
          (0): Sequential(
            (0): Conv2d(40, 240, kernel_size=(1, 1), stride=(1, 1), bias=False)
            (1): BatchNorm2d(240, eps=1e-05, momentum=0.1, affine=True, track_running_stats=True)
            (2): HardSwish(
              (act): Hardswish()
            )
          )
          (1): Sequential(
            (0): Conv2d(240, 240, kernel_size=(3, 3), stride=(2, 2), padding=(1, 1), groups=240, bias=False)
            (1): BatchNorm2d(240, eps=1e-05, momentum=0.1, affine=True, track_running_stats=True)
            (2): HardSwish(
              (act): Hardswish()
            )
          )
          (2): Sequential(
            (0): Conv2d(240, 80, kernel_size=(1, 1), stride=(1, 1), bias=False)
            (1): BatchNorm2d(80, eps=1e-05, momentum=0.1, affine=True, track_running_stats=True)
          )
        )
      )
      (gbl): ShuffleInvertedResidual(
        (block): Sequential(
          (0): Sequential(
            (0): Conv2d(40, 240, kernel_size=(1, 1), stride=(1, 1), bias=False)
            (1): BatchNorm2d(240, eps=1e-05, momentum=0.1, affine=True, track_running_stats=True)
            (2): HardSwish(
              (act): Hardswish()
            )
          )
          (1): ShuffleConv(
            (block): Sequential(
              (0): Conv2d(240, 240, kernel_size=(3, 3), stride=(2, 2), padding=(1, 1), groups=240)
              (1): BatchNorm2d(240, eps=1e-05, momentum=0.1, affine=True, track_running_stats=True)
              (2): ReLU(
                (act): ReLU()
              )
            )
          )
          (2): Sequential(
            (0): Conv2d(240, 80, kernel_size=(1, 1), stride=(1, 1), bias=False)
            (1): BatchNorm2d(80, eps=1e-05, momentum=0.1, affine=True, track_running_stats=True)
          )
        )
      )
    )
    (ms_s_1_idx-1): LocalGlobalAggregate(
      (loc): InvertedResidual(
        (block): Sequential(
          (0): Sequential(
            (0): Conv2d(80, 200, kernel_size=(1, 1), stride=(1, 1), bias=False)
            (1): BatchNorm2d(200, eps=1e-05, momentum=0.1, affine=True, track_running_stats=True)
            (2): HardSwish(
              (act): Hardswish()
            )
          )
          (1): Sequential(
            (0): Conv2d(200, 200, kernel_size=(3, 3), stride=(1, 1), padding=(1, 1), groups=200, bias=False)
            (1): BatchNorm2d(200, eps=1e-05, momentum=0.1, affine=True, track_running_stats=True)
            (2): HardSwish(
              (act): Hardswish()
            )
          )
          (2): Sequential(
            (0): Conv2d(200, 80, kernel_size=(1, 1), stride=(1, 1), bias=False)
            (1): BatchNorm2d(80, eps=1e-05, momentum=0.1, affine=True, track_running_stats=True)
          )
        )
      )
      (gbl): ShuffleInvertedResidual(
        (block): Sequential(
          (0): Sequential(
            (0): Conv2d(80, 200, kernel_size=(1, 1), stride=(1, 1), bias=False)
            (1): BatchNorm2d(200, eps=1e-05, momentum=0.1, affine=True, track_running_stats=True)
            (2): HardSwish(
              (act): Hardswish()
            )
          )
          (1): ShuffleConv(
            (block): Sequential(
              (0): Conv2d(200, 200, kernel_size=(3, 3), stride=(1, 1), padding=(1, 1), groups=200)
              (1): BatchNorm2d(200, eps=1e-05, momentum=0.1, affine=True, track_running_stats=True)
              (2): ReLU(
                (act): ReLU()
              )
            )
          )
          (2): Sequential(
            (0): Conv2d(200, 80, kernel_size=(1, 1), stride=(1, 1), bias=False)
            (1): BatchNorm2d(80, eps=1e-05, momentum=0.1, affine=True, track_running_stats=True)
          )
        )
      )
    )
    (ms_s_1_idx-2): LocalGlobalAggregate(
      (loc): InvertedResidual(
        (block): Sequential(
          (0): Sequential(
            (0): Conv2d(80, 184, kernel_size=(1, 1), stride=(1, 1), bias=False)
            (1): BatchNorm2d(184, eps=1e-05, momentum=0.1, affine=True, track_running_stats=True)
            (2): HardSwish(
              (act): Hardswish()
            )
          )
          (1): Sequential(
            (0): Conv2d(184, 184, kernel_size=(3, 3), stride=(1, 1), padding=(1, 1), groups=184, bias=False)
            (1): BatchNorm2d(184, eps=1e-05, momentum=0.1, affine=True, track_running_stats=True)
            (2): HardSwish(
              (act): Hardswish()
            )
          )
          (2): Sequential(
            (0): Conv2d(184, 80, kernel_size=(1, 1), stride=(1, 1), bias=False)
            (1): BatchNorm2d(80, eps=1e-05, momentum=0.1, affine=True, track_running_stats=True)
          )
        )
      )
      (gbl): ShuffleInvertedResidual(
        (block): Sequential(
          (0): Sequential(
            (0): Conv2d(80, 184, kernel_size=(1, 1), stride=(1, 1), bias=False)
            (1): BatchNorm2d(184, eps=1e-05, momentum=0.1, affine=True, track_running_stats=True)
            (2): HardSwish(
              (act): Hardswish()
            )
          )
          (1): ShuffleConv(
            (block): Sequential(
              (0): Conv2d(184, 184, kernel_size=(3, 3), stride=(1, 1), padding=(1, 1), groups=184)
              (1): BatchNorm2d(184, eps=1e-05, momentum=0.1, affine=True, track_running_stats=True)
              (2): ReLU(
                (act): ReLU()
              )
            )
          )
          (2): Sequential(
            (0): Conv2d(184, 80, kernel_size=(1, 1), stride=(1, 1), bias=False)
            (1): BatchNorm2d(80, eps=1e-05, momentum=0.1, affine=True, track_running_stats=True)
          )
        )
      )
    )
  )
  (layer_5): Sequential(
    (ms_s_2_idx-0): LocalGlobalAggregate(
      (loc): InvertedResidual(
        (block): Sequential(
          (0): Sequential(
            (0): Conv2d(80, 480, kernel_size=(1, 1), stride=(1, 1), bias=False)
            (1): BatchNorm2d(480, eps=1e-05, momentum=0.1, affine=True, track_running_stats=True)
            (2): HardSwish(
              (act): Hardswish()
            )
          )
          (1): Sequential(
            (0): Conv2d(480, 480, kernel_size=(3, 3), stride=(2, 2), padding=(1, 1), groups=480, bias=False)
            (1): BatchNorm2d(480, eps=1e-05, momentum=0.1, affine=True, track_running_stats=True)
            (2): HardSwish(
              (act): Hardswish()
            )
          )
          (2): Sequential(
            (0): Conv2d(480, 160, kernel_size=(1, 1), stride=(1, 1), bias=False)
            (1): BatchNorm2d(160, eps=1e-05, momentum=0.1, affine=True, track_running_stats=True)
          )
        )
      )
      (gbl): ShuffleInvertedResidual(
        (block): Sequential(
          (0): Sequential(
            (0): Conv2d(80, 480, kernel_size=(1, 1), stride=(1, 1), bias=False)
            (1): BatchNorm2d(480, eps=1e-05, momentum=0.1, affine=True, track_running_stats=True)
            (2): HardSwish(
              (act): Hardswish()
            )
          )
          (1): ShuffleConv(
            (block): Sequential(
              (0): Conv2d(480, 480, kernel_size=(3, 3), stride=(2, 2), padding=(1, 1), groups=480)
              (1): BatchNorm2d(480, eps=1e-05, momentum=0.1, affine=True, track_running_stats=True)
              (2): ReLU(
                (act): ReLU()
              )
            )
          )
          (2): Sequential(
            (0): Conv2d(480, 160, kernel_size=(1, 1), stride=(1, 1), bias=False)
            (1): BatchNorm2d(160, eps=1e-05, momentum=0.1, affine=True, track_running_stats=True)
          )
        )
      )
    )
  )
  (tail): Sequential(
    (0): Conv2d(160, 1280, kernel_size=(1, 1), stride=(1, 1))
    (1): BatchNorm2d(1280, eps=1e-05, momentum=0.1, affine=True, track_running_stats=True)
    (2): Hardswish()
  )
  (classifier): Sequential(
    (0): GlobalPool(type=mean)
    (1): Linear(in_features=1280, out_features=101, bias=True)
  )
)
[2025-08-27 09:15:38 food_classification] (file: utils.py func: summery_model line: 52): INFO Overall parameters=   0.854M
[2025-08-27 09:15:39 food_classification] (file: utils.py func: summery_model line: 71): INFO Overall MACs (Thop)**=   235.6M
[2025-08-27 09:15:39 food_classification] (file: utils.py func: summery_model line: 82): INFO Overall FLOPs (Thop)**=   471.1M
…
[2025-08-27 20:06:35 food_classification] (file: __init__.py func: build_loader line: 28): INFO Successfully build train dataset
[2025-08-27 20:06:35 food_classification] (file: dataset.py func: build_dataset line: 21): INFO Building dataset with default transform.
[2025-08-27 20:06:35 food_classification] (file: __init__.py func: build_loader line: 35): INFO Successfully build val dataset
[2025-08-27 20:06:35 food_classification] (file: main.py func: main line: 217): INFO Creating model:gs_net
[2025-08-27 20:06:35 food_classification] (file: main.py func: main line: 221): INFO MobileShuffleV2(
  (head): Sequential(
    (0): Conv2d(3, 16, kernel_size=(3, 3), stride=(2, 2), padding=(1, 1))
    (1): BatchNorm2d(16, eps=1e-05, momentum=0.1, affine=True, track_running_stats=True)
    (2): Hardswish()
  )
  (layer_1): Sequential(
    (ms_s_1_idx-0): LocalGlobalAggregate(
      (loc): InvertedResidual(
        (block): Sequential(
          (0): Sequential(
            (0): Conv2d(16, 16, kernel_size=(3, 3), stride=(1, 1), padding=(1, 1), groups=16, bias=False)
            (1): BatchNorm2d(16, eps=1e-05, momentum=0.1, affine=True, track_running_stats=True)
            (2): HardSwish(
              (act): Hardswish()
            )
          )
          (1): Sequential(
            (0): Conv2d(16, 16, kernel_size=(1, 1), stride=(1, 1), bias=False)
            (1): BatchNorm2d(16, eps=1e-05, momentum=0.1, affine=True, track_running_stats=True)
          )
        )
      )
      (gbl): ShuffleInvertedResidual(
        (block): Sequential(
          (0): ShuffleConv(
            (block): Sequential(
              (0): Conv2d(16, 16, kernel_size=(3, 3), stride=(1, 1), padding=(1, 1), groups=16)
              (1): BatchNorm2d(16, eps=1e-05, momentum=0.1, affine=True, track_running_stats=True)
              (2): ReLU(
                (act): ReLU()
              )
            )
          )
          (1): Sequential(
            (0): Conv2d(16, 16, kernel_size=(1, 1), stride=(1, 1), bias=False)
            (1): BatchNorm2d(16, eps=1e-05, momentum=0.1, affine=True, track_running_stats=True)
          )
        )
      )
    )
  )
  (layer_2): Sequential(
    (ms_s_2_idx-0): LocalGlobalAggregate(
      (loc): InvertedResidual(
        (block): Sequential(
          (0): Sequential(
            (0): Conv2d(16, 64, kernel_size=(1, 1), stride=(1, 1), bias=False)
            (1): BatchNorm2d(64, eps=1e-05, momentum=0.1, affine=True, track_running_stats=True)
            (2): HardSwish(
              (act): Hardswish()
            )
          )
          (1): Sequential(
            (0): Conv2d(64, 64, kernel_size=(3, 3), stride=(2, 2), padding=(1, 1), groups=64, bias=False)
            (1): BatchNorm2d(64, eps=1e-05, momentum=0.1, affine=True, track_running_stats=True)
            (2): HardSwish(
              (act): Hardswish()
            )
          )
          (2): Sequential(
            (0): Conv2d(64, 24, kernel_size=(1, 1), stride=(1, 1), bias=False)
            (1): BatchNorm2d(24, eps=1e-05, momentum=0.1, affine=True, track_running_stats=True)
          )
        )
      )
      (gbl): ShuffleInvertedResidual(
        (block): Sequential(
          (0): Sequential(
            (0): Conv2d(16, 64, kernel_size=(1, 1), stride=(1, 1), bias=False)
            (1): BatchNorm2d(64, eps=1e-05, momentum=0.1, affine=True, track_running_stats=True)
            (2): HardSwish(
              (act): Hardswish()
            )
          )
          (1): ShuffleConv(
            (block): Sequential(
              (0): Conv2d(64, 64, kernel_size=(3, 3), stride=(2, 2), padding=(1, 1), groups=64)
              (1): BatchNorm2d(64, eps=1e-05, momentum=0.1, affine=True, track_running_stats=True)
              (2): ReLU(
                (act): ReLU()
              )
            )
          )
          (2): Sequential(
            (0): Conv2d(64, 24, kernel_size=(1, 1), stride=(1, 1), bias=False)
            (1): BatchNorm2d(24, eps=1e-05, momentum=0.1, affine=True, track_running_stats=True)
          )
        )
      )
    )
    (ms_s_1_idx-1): LocalGlobalAggregate(
      (loc): InvertedResidual(
        (block): Sequential(
          (0): Sequential(
            (0): Conv2d(24, 72, kernel_size=(1, 1), stride=(1, 1), bias=False)
            (1): BatchNorm2d(72, eps=1e-05, momentum=0.1, affine=True, track_running_stats=True)
            (2): HardSwish(
              (act): Hardswish()
            )
          )
          (1): Sequential(
            (0): Conv2d(72, 72, kernel_size=(3, 3), stride=(1, 1), padding=(1, 1), groups=72, bias=False)
            (1): BatchNorm2d(72, eps=1e-05, momentum=0.1, affine=True, track_running_stats=True)
            (2): HardSwish(
              (act): Hardswish()
            )
          )
          (2): Sequential(
            (0): Conv2d(72, 24, kernel_size=(1, 1), stride=(1, 1), bias=False)
            (1): BatchNorm2d(24, eps=1e-05, momentum=0.1, affine=True, track_running_stats=True)
          )
        )
      )
      (gbl): ShuffleInvertedResidual(
        (block): Sequential(
          (0): Sequential(
            (0): Conv2d(24, 72, kernel_size=(1, 1), stride=(1, 1), bias=False)
            (1): BatchNorm2d(72, eps=1e-05, momentum=0.1, affine=True, track_running_stats=True)
            (2): HardSwish(
              (act): Hardswish()
            )
          )
          (1): ShuffleConv(
            (block): Sequential(
              (0): Conv2d(72, 72, kernel_size=(3, 3), stride=(1, 1), padding=(1, 1), groups=72)
              (1): BatchNorm2d(72, eps=1e-05, momentum=0.1, affine=True, track_running_stats=True)
              (2): ReLU(
                (act): ReLU()
              )
            )
          )
          (2): Sequential(
            (0): Conv2d(72, 24, kernel_size=(1, 1), stride=(1, 1), bias=False)
            (1): BatchNorm2d(24, eps=1e-05, momentum=0.1, affine=True, track_running_stats=True)
          )
        )
      )
    )
  )
  (layer_3): Sequential(
    (ms_s_2_idx-0): LocalGlobalAggregate(
      (loc): InvertedResidual(
        (block): Sequential(
          (0): Sequential(
            (0): Conv2d(24, 72, kernel_size=(1, 1), stride=(1, 1), bias=False)
            (1): BatchNorm2d(72, eps=1e-05, momentum=0.1, affine=True, track_running_stats=True)
            (2): HardSwish(
              (act): Hardswish()
            )
          )
          (1): Sequential(
            (0): Conv2d(72, 72, kernel_size=(3, 3), stride=(2, 2), padding=(1, 1), groups=72, bias=False)
            (1): BatchNorm2d(72, eps=1e-05, momentum=0.1, affine=True, track_running_stats=True)
            (2): HardSwish(
              (act): Hardswish()
            )
          )
          (2): Sequential(
            (0): Conv2d(72, 40, kernel_size=(1, 1), stride=(1, 1), bias=False)
            (1): BatchNorm2d(40, eps=1e-05, momentum=0.1, affine=True, track_running_stats=True)
          )
        )
      )
      (gbl): ShuffleInvertedResidual(
        (block): Sequential(
          (0): Sequential(
            (0): Conv2d(24, 72, kernel_size=(1, 1), stride=(1, 1), bias=False)
            (1): BatchNorm2d(72, eps=1e-05, momentum=0.1, affine=True, track_running_stats=True)
            (2): HardSwish(
              (act): Hardswish()
            )
          )
          (1): ShuffleConv(
            (block): Sequential(
              (0): Conv2d(72, 72, kernel_size=(3, 3), stride=(2, 2), padding=(1, 1), groups=72)
              (1): BatchNorm2d(72, eps=1e-05, momentum=0.1, affine=True, track_running_stats=True)
              (2): ReLU(
                (act): ReLU()
              )
            )
          )
          (2): Sequential(
            (0): Conv2d(72, 40, kernel_size=(1, 1), stride=(1, 1), bias=False)
            (1): BatchNorm2d(40, eps=1e-05, momentum=0.1, affine=True, track_running_stats=True)
          )
        )
      )
    )
    (ms_s_1_idx-1): LocalGlobalAggregate(
      (loc): InvertedResidual(
        (block): Sequential(
          (0): Sequential(
            (0): Conv2d(40, 120, kernel_size=(1, 1), stride=(1, 1), bias=False)
            (1): BatchNorm2d(120, eps=1e-05, momentum=0.1, affine=True, track_running_stats=True)
            (2): HardSwish(
              (act): Hardswish()
            )
          )
          (1): Sequential(
            (0): Conv2d(120, 120, kernel_size=(3, 3), stride=(1, 1), padding=(1, 1), groups=120, bias=False)
            (1): BatchNorm2d(120, eps=1e-05, momentum=0.1, affine=True, track_running_stats=True)
            (2): HardSwish(
              (act): Hardswish()
            )
          )
          (2): Sequential(
            (0): Conv2d(120, 40, kernel_size=(1, 1), stride=(1, 1), bias=False)
            (1): BatchNorm2d(40, eps=1e-05, momentum=0.1, affine=True, track_running_stats=True)
          )
        )
      )
      (gbl): ShuffleInvertedResidual(
        (block): Sequential(
          (0): Sequential(
            (0): Conv2d(40, 120, kernel_size=(1, 1), stride=(1, 1), bias=False)
            (1): BatchNorm2d(120, eps=1e-05, momentum=0.1, affine=True, track_running_stats=True)
            (2): HardSwish(
              (act): Hardswish()
            )
          )
          (1): ShuffleConv(
            (block): Sequential(
              (0): Conv2d(120, 120, kernel_size=(3, 3), stride=(1, 1), padding=(1, 1), groups=120)
              (1): BatchNorm2d(120, eps=1e-05, momentum=0.1, affine=True, track_running_stats=True)
              (2): ReLU(
                (act): ReLU()
              )
            )
          )
          (2): Sequential(
            (0): Conv2d(120, 40, kernel_size=(1, 1), stride=(1, 1), bias=False)
            (1): BatchNorm2d(40, eps=1e-05, momentum=0.1, affine=True, track_running_stats=True)
          )
        )
      )
    )
    (ms_s_1_idx-2): LocalGlobalAggregate(
      (loc): InvertedResidual(
        (block): Sequential(
          (0): Sequential(
            (0): Conv2d(40, 120, kernel_size=(1, 1), stride=(1, 1), bias=False)
            (1): BatchNorm2d(120, eps=1e-05, momentum=0.1, affine=True, track_running_stats=True)
            (2): HardSwish(
              (act): Hardswish()
            )
          )
          (1): Sequential(
            (0): Conv2d(120, 120, kernel_size=(3, 3), stride=(1, 1), padding=(1, 1), groups=120, bias=False)
            (1): BatchNorm2d(120, eps=1e-05, momentum=0.1, affine=True, track_running_stats=True)
            (2): HardSwish(
              (act): Hardswish()
            )
          )
          (2): Sequential(
            (0): Conv2d(120, 40, kernel_size=(1, 1), stride=(1, 1), bias=False)
            (1): BatchNorm2d(40, eps=1e-05, momentum=0.1, affine=True, track_running_stats=True)
          )
        )
      )
      (gbl): ShuffleInvertedResidual(
        (block): Sequential(
          (0): Sequential(
            (0): Conv2d(40, 120, kernel_size=(1, 1), stride=(1, 1), bias=False)
            (1): BatchNorm2d(120, eps=1e-05, momentum=0.1, affine=True, track_running_stats=True)
            (2): HardSwish(
              (act): Hardswish()
            )
          )
          (1): ShuffleConv(
            (block): Sequential(
              (0): Conv2d(120, 120, kernel_size=(3, 3), stride=(1, 1), padding=(1, 1), groups=120)
              (1): BatchNorm2d(120, eps=1e-05, momentum=0.1, affine=True, track_running_stats=True)
              (2): ReLU(
                (act): ReLU()
              )
            )
          )
          (2): Sequential(
            (0): Conv2d(120, 40, kernel_size=(1, 1), stride=(1, 1), bias=False)
            (1): BatchNorm2d(40, eps=1e-05, momentum=0.1, affine=True, track_running_stats=True)
          )
        )
      )
    )
  )
  (layer_4): Sequential(
    (ms_s_2_idx-0): LocalGlobalAggregate(
      (loc): InvertedResidual(
        (block): Sequential(
          (0): Sequential(
            (0): Conv2d(40, 240, kernel_size=(1, 1), stride=(1, 1), bias=False)
            (1): BatchNorm2d(240, eps=1e-05, momentum=0.1, affine=True, track_running_stats=True)
            (2): HardSwish(
              (act): Hardswish()
            )
          )
          (1): Sequential(
            (0): Conv2d(240, 240, kernel_size=(3, 3), stride=(2, 2), padding=(1, 1), groups=240, bias=False)
            (1): BatchNorm2d(240, eps=1e-05, momentum=0.1, affine=True, track_running_stats=True)
            (2): HardSwish(
              (act): Hardswish()
            )
          )
          (2): Sequential(
            (0): Conv2d(240, 80, kernel_size=(1, 1), stride=(1, 1), bias=False)
            (1): BatchNorm2d(80, eps=1e-05, momentum=0.1, affine=True, track_running_stats=True)
          )
        )
      )
      (gbl): ShuffleInvertedResidual(
        (block): Sequential(
          (0): Sequential(
            (0): Conv2d(40, 240, kernel_size=(1, 1), stride=(1, 1), bias=False)
            (1): BatchNorm2d(240, eps=1e-05, momentum=0.1, affine=True, track_running_stats=True)
            (2): HardSwish(
              (act): Hardswish()
            )
          )
          (1): ShuffleConv(
            (block): Sequential(
              (0): Conv2d(240, 240, kernel_size=(3, 3), stride=(2, 2), padding=(1, 1), groups=240)
              (1): BatchNorm2d(240, eps=1e-05, momentum=0.1, affine=True, track_running_stats=True)
              (2): ReLU(
                (act): ReLU()
              )
            )
          )
          (2): Sequential(
            (0): Conv2d(240, 80, kernel_size=(1, 1), stride=(1, 1), bias=False)
            (1): BatchNorm2d(80, eps=1e-05, momentum=0.1, affine=True, track_running_stats=True)
          )
        )
      )
    )
    (ms_s_1_idx-1): LocalGlobalAggregate(
      (loc): InvertedResidual(
        (block): Sequential(
          (0): Sequential(
            (0): Conv2d(80, 200, kernel_size=(1, 1), stride=(1, 1), bias=False)
            (1): BatchNorm2d(200, eps=1e-05, momentum=0.1, affine=True, track_running_stats=True)
            (2): HardSwish(
              (act): Hardswish()
            )
          )
          (1): Sequential(
            (0): Conv2d(200, 200, kernel_size=(3, 3), stride=(1, 1), padding=(1, 1), groups=200, bias=False)
            (1): BatchNorm2d(200, eps=1e-05, momentum=0.1, affine=True, track_running_stats=True)
            (2): HardSwish(
              (act): Hardswish()
            )
          )
          (2): Sequential(
            (0): Conv2d(200, 80, kernel_size=(1, 1), stride=(1, 1), bias=False)
            (1): BatchNorm2d(80, eps=1e-05, momentum=0.1, affine=True, track_running_stats=True)
          )
        )
      )
      (gbl): ShuffleInvertedResidual(
        (block): Sequential(
          (0): Sequential(
            (0): Conv2d(80, 200, kernel_size=(1, 1), stride=(1, 1), bias=False)
            (1): BatchNorm2d(200, eps=1e-05, momentum=0.1, affine=True, track_running_stats=True)
            (2): HardSwish(
              (act): Hardswish()
            )
          )
          (1): ShuffleConv(
            (block): Sequential(
              (0): Conv2d(200, 200, kernel_size=(3, 3), stride=(1, 1), padding=(1, 1), groups=200)
              (1): BatchNorm2d(200, eps=1e-05, momentum=0.1, affine=True, track_running_stats=True)
              (2): ReLU(
                (act): ReLU()
              )
            )
          )
          (2): Sequential(
            (0): Conv2d(200, 80, kernel_size=(1, 1), stride=(1, 1), bias=False)
            (1): BatchNorm2d(80, eps=1e-05, momentum=0.1, affine=True, track_running_stats=True)
          )
        )
      )
    )
    (ms_s_1_idx-2): LocalGlobalAggregate(
      (loc): InvertedResidual(
        (block): Sequential(
          (0): Sequential(
            (0): Conv2d(80, 184, kernel_size=(1, 1), stride=(1, 1), bias=False)
            (1): BatchNorm2d(184, eps=1e-05, momentum=0.1, affine=True, track_running_stats=True)
            (2): HardSwish(
              (act): Hardswish()
            )
          )
          (1): Sequential(
            (0): Conv2d(184, 184, kernel_size=(3, 3), stride=(1, 1), padding=(1, 1), groups=184, bias=False)
            (1): BatchNorm2d(184, eps=1e-05, momentum=0.1, affine=True, track_running_stats=True)
            (2): HardSwish(
              (act): Hardswish()
            )
          )
          (2): Sequential(
            (0): Conv2d(184, 80, kernel_size=(1, 1), stride=(1, 1), bias=False)
            (1): BatchNorm2d(80, eps=1e-05, momentum=0.1, affine=True, track_running_stats=True)
          )
        )
      )
      (gbl): ShuffleInvertedResidual(
        (block): Sequential(
          (0): Sequential(
            (0): Conv2d(80, 184, kernel_size=(1, 1), stride=(1, 1), bias=False)
            (1): BatchNorm2d(184, eps=1e-05, momentum=0.1, affine=True, track_running_stats=True)
            (2): HardSwish(
              (act): Hardswish()
            )
          )
          (1): ShuffleConv(
            (block): Sequential(
              (0): Conv2d(184, 184, kernel_size=(3, 3), stride=(1, 1), padding=(1, 1), groups=184)
              (1): BatchNorm2d(184, eps=1e-05, momentum=0.1, affine=True, track_running_stats=True)
              (2): ReLU(
                (act): ReLU()
              )
            )
          )
          (2): Sequential(
            (0): Conv2d(184, 80, kernel_size=(1, 1), stride=(1, 1), bias=False)
            (1): BatchNorm2d(80, eps=1e-05, momentum=0.1, affine=True, track_running_stats=True)
          )
        )
      )
    )
  )
  (layer_5): Sequential(
    (ms_s_2_idx-0): LocalGlobalAggregate(
      (loc): InvertedResidual(
        (block): Sequential(
          (0): Sequential(
            (0): Conv2d(80, 480, kernel_size=(1, 1), stride=(1, 1), bias=False)
            (1): BatchNorm2d(480, eps=1e-05, momentum=0.1, affine=True, track_running_stats=True)
            (2): HardSwish(
              (act): Hardswish()
            )
          )
          (1): Sequential(
            (0): Conv2d(480, 480, kernel_size=(3, 3), stride=(2, 2), padding=(1, 1), groups=480, bias=False)
            (1): BatchNorm2d(480, eps=1e-05, momentum=0.1, affine=True, track_running_stats=True)
            (2): HardSwish(
              (act): Hardswish()
            )
          )
          (2): Sequential(
            (0): Conv2d(480, 160, kernel_size=(1, 1), stride=(1, 1), bias=False)
            (1): BatchNorm2d(160, eps=1e-05, momentum=0.1, affine=True, track_running_stats=True)
          )
        )
      )
      (gbl): ShuffleInvertedResidual(
        (block): Sequential(
          (0): Sequential(
            (0): Conv2d(80, 480, kernel_size=(1, 1), stride=(1, 1), bias=False)
            (1): BatchNorm2d(480, eps=1e-05, momentum=0.1, affine=True, track_running_stats=True)
            (2): HardSwish(
              (act): Hardswish()
            )
          )
          (1): ShuffleConv(
            (block): Sequential(
              (0): Conv2d(480, 480, kernel_size=(3, 3), stride=(2, 2), padding=(1, 1), groups=480)
              (1): BatchNorm2d(480, eps=1e-05, momentum=0.1, affine=True, track_running_stats=True)
              (2): ReLU(
                (act): ReLU()
              )
            )
          )
          (2): Sequential(
            (0): Conv2d(480, 160, kernel_size=(1, 1), stride=(1, 1), bias=False)
            (1): BatchNorm2d(160, eps=1e-05, momentum=0.1, affine=True, track_running_stats=True)
          )
        )
      )
    )
  )
  (tail): Sequential(
    (0): Conv2d(160, 1280, kernel_size=(1, 1), stride=(1, 1))
    (1): BatchNorm2d(1280, eps=1e-05, momentum=0.1, affine=True, track_running_stats=True)
    (2): Hardswish()
  )
  (classifier): Sequential(
    (0): GlobalPool(type=mean)
    (1): Linear(in_features=1280, out_features=5, bias=True)
  )
)
[2025-08-27 20:06:35 food_classification] (file: utils.py func: summery_model line: 52): INFO Overall parameters=   0.731M
[2025-08-27 20:06:36 food_classification] (file: utils.py func: summery_model line: 71): INFO Overall MACs (Thop)**=   235.4M
[2025-08-27 20:06:36 food_classification] (file: utils.py func: summery_model line: 82): INFO Overall FLOPs (Thop)**=   470.9M
…
