…
    DECAY_EPOCHS: 30
    DECAY_RATE: 0.1
    NAME: cosine
  MIN_LR: 1.5625e-07
  OPTIMIZER:
    BETAS:
    - 0.9
    - 0.999
    EPS: 1.0e-08
    MOMENTUM: 0.9
    NAME: adamw
  START_EPOCH: 0
  USE_CHECKPOINT: false
  WARMUP_EPOCHS: 20
  WARMUP_LR: 1.5625e-08
  WEIGHT_DECAY: 0.05

INFO - Building dataset with default transform.
INFO - Successfully build train dataset
INFO - Building dataset with default transform.
INFO - Successfully build val dataset
INFO - Creating model:af_net
INFO - MobileAggregate(
  (head): Sequential(
    (0): AggregateBlock(
      (agt_height): AggregateLayer(
        (linear_layer): Conv1d(3, 3, kernel_size=(1,), stride=(1,), groups=3, bias=False)
      )
      (agt_width): AggregateLayer(
        (linear_layer): Conv1d(3, 3, kernel_size=(1,), stride=(1,), groups=3, bias=False)
      )
      (norm_layer): BatchNorm2d(3, eps=1e-05, momentum=0.1, affine=True, track_running_stats=True)
    )
    (1): Conv2d(3, 16, kernel_size=(3, 3), stride=(2, 2), padding=(1, 1))
    (2): BatchNorm2d(16, eps=1e-05, momentum=0.1, affine=True, track_running_stats=True)
    (3): Hardswish()
  )
  (body): Sequential(
    (layer1): Sequential(
      (ms_s_1_idx-0): LocalGlobalAggregate(
        (loc): InvertedResidual(
          (block): Sequential(
            (0): Sequential(
              (0): Conv2d(16, 16, kernel_size=(3, 3), stride=(1, 1), padding=(1, 1), groups=16, bias=False)
              (1): BatchNorm2d(16, eps=1e-05, momentum=0.1, affine=True, track_running_stats=True)
              (2): HardSwish(
                (act): Hardswish()
              )
            )
            (1): Sequential(
              (0): Conv2d(16, 32, kernel_size=(1, 1), stride=(1, 1), bias=False)
              (1): BatchNorm2d(32, eps=1e-05, momentum=0.1, affine=True, track_running_stats=True)
            )
          )
        )
        (agt): AggregateBlock(
          (agt_height): AggregateLayer(
            (linear_layer): Conv1d(16, 16, kernel_size=(1,), stride=(1,), groups=16, bias=False)
          )
          (agt_width): AggregateLayer(
            (linear_layer): Conv1d(16, 16, kernel_size=(1,), stride=(1,), groups=16, bias=False)
          )
          (norm_layer): BatchNorm2d(16, eps=1e-05, momentum=0.1, affine=True, track_running_stats=True)
        )
      )
    )
    (layer2): Sequential(
      (ms_s_2_idx-0): LocalGlobalAggregate(
        (loc): InvertedResidual(
          (block): Sequential(
            (0): Sequential(
              (0): Conv2d(32, 128, kernel_size=(1, 1), stride=(1, 1), bias=False)
              (1): BatchNorm2d(128, eps=1e-05, momentum=0.1, affine=True, track_running_stats=True)
              (2): HardSwish(
                (act): Hardswish()
              )
            )
            (1): Sequential(
              (0): Conv2d(128, 128, kernel_size=(3, 3), stride=(2, 2), padding=(1, 1), groups=128, bias=False)
              (1): BatchNorm2d(128, eps=1e-05, momentum=0.1, affine=True, track_running_stats=True)
              (2): HardSwish(
                (act): Hardswish()
              )
            )
            (2): Sequential(
              (0): Conv2d(128, 48, kernel_size=(1, 1), stride=(1, 1), bias=False)
              (1): BatchNorm2d(48, eps=1e-05, momentum=0.1, affine=True, track_running_stats=True)
            )
          )
        )
        (agt): AggregateBlock(
          (agt_height): AggregateLayer(
            (linear_layer): Conv1d(32, 32, kernel_size=(1,), stride=(1,), groups=32, bias=False)
          )
          (agt_width): AggregateLayer(
            (linear_layer): Conv1d(32, 32, kernel_size=(1,), stride=(1,), groups=32, bias=False)
          )
          (norm_layer): BatchNorm2d(32, eps=1e-05, momentum=0.1, affine=True, track_running_stats=True)
        )
      )
      (ms_s_1_idx-1): LocalGlobalAggregate(
        (loc): InvertedResidual(
          (block): Sequential(
            (0): Sequential(
              (0): Conv2d(48, 144, kernel_size=(1, 1), stride=(1, 1), bias=False)
              (1): BatchNorm2d(144, eps=1e-05, momentum=0.1, affine=True, track_running_stats=True)
              (2): HardSwish(
                (act): Hardswish()
              )
            )
            (1): Sequential(
              (0): Conv2d(144, 144, kernel_size=(3, 3), stride=(1, 1), padding=(1, 1), groups=144, bias=False)
              (1): BatchNorm2d(144, eps=1e-05, momentum=0.1, affine=True, track_running_stats=True)
              (2): HardSwish(
                (act): Hardswish()
              )
            )
            (2): Sequential(
              (0): Conv2d(144, 48, kernel_size=(1, 1), stride=(1, 1), bias=False)
              (1): BatchNorm2d(48, eps=1e-05, momentum=0.1, affine=True, track_running_stats=True)
            )
          )
        )
        (agt): AggregateBlock(
          (agt_height): AggregateLayer(
            (linear_layer): Conv1d(48, 48, kernel_size=(1,), stride=(1,), groups=48, bias=False)
          )
          (agt_width): AggregateLayer(
            (linear_layer): Conv1d(48, 48, kernel_size=(1,), stride=(1,), groups=48, bias=False)
          )
          (norm_layer): BatchNorm2d(48, eps=1e-05, momentum=0.1, affine=True, track_running_stats=True)
        )
      )
    )
    (layer3): Sequential(
      (ms_s_2_idx-0): LocalGlobalAggregate(
        (loc): InvertedResidual(
          (block): Sequential(
            (0): Sequential(
              (0): Conv2d(48, 144, kernel_size=(1, 1), stride=(1, 1), bias=False)
              (1): BatchNorm2d(144, eps=1e-05, momentum=0.1, affine=True, track_running_stats=True)
              (2): HardSwish(
                (act): Hardswish()
              )
            )
            (1): Sequential(
              (0): Conv2d(144, 144, kernel_size=(3, 3), stride=(2, 2), padding=(1, 1), groups=144, bias=False)
              (1): BatchNorm2d(144, eps=1e-05, momentum=0.1, affine=True, track_running_stats=True)
              (2): HardSwish(
                (act): Hardswish()
              )
            )
            (2): Sequential(
              (0): Conv2d(144, 80, kernel_size=(1, 1), stride=(1, 1), bias=False)
              (1): BatchNorm2d(80, eps=1e-05, momentum=0.1, affine=True, track_running_stats=True)
            )
          )
        )
        (agt): AggregateBlock(
          (agt_height): AggregateLayer(
            (linear_layer): Conv1d(48, 48, kernel_size=(1,), stride=(1,), groups=48, bias=False)
          )
          (agt_width): AggregateLayer(
            (linear_layer): Conv1d(48, 48, kernel_size=(1,), stride=(1,), groups=48, bias=False)
          )
          (norm_layer): BatchNorm2d(48, eps=1e-05, momentum=0.1, affine=True, track_running_stats=True)
        )
      )
      (ms_s_1_idx-1): LocalGlobalAggregate(
        (loc): InvertedResidual(
          (block): Sequential(
            (0): Sequential(
              (0): Conv2d(80, 240, kernel_size=(1, 1), stride=(1, 1), bias=False)
              (1): BatchNorm2d(240, eps=1e-05, momentum=0.1, affine=True, track_running_stats=True)
              (2): HardSwish(
                (act): Hardswish()
              )
            )
            (1): Sequential(
              (0): Conv2d(240, 240, kernel_size=(3, 3), stride=(1, 1), padding=(1, 1), groups=240, bias=False)
              (1): BatchNorm2d(240, eps=1e-05, momentum=0.1, affine=True, track_running_stats=True)
              (2): HardSwish(
                (act): Hardswish()
              )
            )
            (2): Sequential(
              (0): Conv2d(240, 80, kernel_size=(1, 1), stride=(1, 1), bias=False)
              (1): BatchNorm2d(80, eps=1e-05, momentum=0.1, affine=True, track_running_stats=True)
            )
          )
        )
        (agt): AggregateBlock(
          (agt_height): AggregateLayer(
            (linear_layer): Conv1d(80, 80, kernel_size=(1,), stride=(1,), groups=80, bias=False)
          )
          (agt_width): AggregateLayer(
            (linear_layer): Conv1d(80, 80, kernel_size=(1,), stride=(1,), groups=80, bias=False)
          )
          (norm_layer): BatchNorm2d(80, eps=1e-05, momentum=0.1, affine=True, track_running_stats=True)
        )
      )
      (ms_s_1_idx-2): LocalGlobalAggregate(
        (loc): InvertedResidual(
          (block): Sequential(
            (0): Sequential(
              (0): Conv2d(80, 240, kernel_size=(1, 1), stride=(1, 1), bias=False)
              (1): BatchNorm2d(240, eps=1e-05, momentum=0.1, affine=True, track_running_stats=True)
              (2): HardSwish(
                (act): Hardswish()
              )
            )
            (1): Sequential(
              (0): Conv2d(240, 240, kernel_size=(3, 3), stride=(1, 1), padding=(1, 1), groups=240, bias=False)
              (1): BatchNorm2d(240, eps=1e-05, momentum=0.1, affine=True, track_running_stats=True)
              (2): HardSwish(
                (act): Hardswish()
              )
            )
            (2): Sequential(
              (0): Conv2d(240, 80, kernel_size=(1, 1), stride=(1, 1), bias=False)
              (1): BatchNorm2d(80, eps=1e-05, momentum=0.1, affine=True, track_running_stats=True)
            )
          )
        )
        (agt): AggregateBlock(
          (agt_height): AggregateLayer(
            (linear_layer): Conv1d(80, 80, kernel_size=(1,), stride=(1,), groups=80, bias=False)
          )
          (agt_width): AggregateLayer(
            (linear_layer): Conv1d(80, 80, kernel_size=(1,), stride=(1,), groups=80, bias=False)
          )
          (norm_layer): BatchNorm2d(80, eps=1e-05, momentum=0.1, affine=True, track_running_stats=True)
        )
      )
    )
    (layer4): Sequential(
      (ms_s_2_idx-0): LocalGlobalAggregate(
        (loc): InvertedResidual(
          (block): Sequential(
            (0): Sequential(
              (0): Conv2d(80, 480, kernel_size=(1, 1), stride=(1, 1), bias=False)
              (1): BatchNorm2d(480, eps=1e-05, momentum=0.1, affine=True, track_running_stats=True)
              (2): HardSwish(
                (act): Hardswish()
              )
            )
            (1): Sequential(
              (0): Conv2d(480, 480, kernel_size=(3, 3), stride=(2, 2), padding=(1, 1), groups=480, bias=False)
              (1): BatchNorm2d(480, eps=1e-05, momentum=0.1, affine=True, track_running_stats=True)
              (2): HardSwish(
                (act): Hardswish()
              )
            )
            (2): Sequential(
              (0): Conv2d(480, 160, kernel_size=(1, 1), stride=(1, 1), bias=False)
              (1): BatchNorm2d(160, eps=1e-05, momentum=0.1, affine=True, track_running_stats=True)
            )
          )
        )
        (agt): AggregateBlock(
          (agt_height): AggregateLayer(
            (linear_layer): Conv1d(80, 80, kernel_size=(1,), stride=(1,), groups=80, bias=False)
          )
          (agt_width): AggregateLayer(
            (linear_layer): Conv1d(80, 80, kernel_size=(1,), stride=(1,), groups=80, bias=False)
          )
          (norm_layer): BatchNorm2d(80, eps=1e-05, momentum=0.1, affine=True, track_running_stats=True)
        )
      )
      (ms_s_1_idx-1): LocalGlobalAggregate(
        (loc): InvertedResidual(
          (block): Sequential(
            (0): Sequential(
              (0): Conv2d(160, 960, kernel_size=(1, 1), stride=(1, 1), bias=False)
              (1): BatchNorm2d(960, eps=1e-05, momentum=0.1, affine=True, track_running_stats=True)
              (2): HardSwish(
                (act): Hardswish()
              )
            )
            (1): Sequential(
              (0): Conv2d(960, 960, kernel_size=(3, 3), stride=(1, 1), padding=(1, 1), groups=960, bias=False)
              (1): BatchNorm2d(960, eps=1e-05, momentum=0.1, affine=True, track_running_stats=True)
              (2): HardSwish(
                (act): Hardswish()
              )
            )
            (2): Sequential(
              (0): Conv2d(960, 160, kernel_size=(1, 1), stride=(1, 1), bias=False)
              (1): BatchNorm2d(160, eps=1e-05, momentum=0.1, affine=True, track_running_stats=True)
            )
          )
        )
        (agt): AggregateBlock(
          (agt_height): AggregateLayer(
            (linear_layer): Conv1d(160, 160, kernel_size=(1,), stride=(1,), groups=160, bias=False)
          )
          (agt_width): AggregateLayer(
            (linear_layer): Conv1d(160, 160, kernel_size=(1,), stride=(1,), groups=160, bias=False)
          )
          (norm_layer): BatchNorm2d(160, eps=1e-05, momentum=0.1, affine=True, track_running_stats=True)
        )
      )
    )
    (layer5): Sequential(
      (ms_s_2_idx-0): LocalGlobalAggregate(
        (loc): InvertedResidual(
          (block): Sequential(
            (0): Sequential(
              (0): Conv2d(160, 960, kernel_size=(1, 1), stride=(1, 1), bias=False)
              (1): BatchNorm2d(960, eps=1e-05, momentum=0.1, affine=True, track_running_stats=True)
              (2): HardSwish(
                (act): Hardswish()
              )
            )
            (1): Sequential(
              (0): Conv2d(960, 960, kernel_size=(3, 3), stride=(2, 2), padding=(1, 1), groups=960, bias=False)
              (1): BatchNorm2d(960, eps=1e-05, momentum=0.1, affine=True, track_running_stats=True)
              (2): HardSwish(
                (act): Hardswish()
              )
            )
            (2): Sequential(
              (0): Conv2d(960, 320, kernel_size=(1, 1), stride=(1, 1), bias=False)
              (1): BatchNorm2d(320, eps=1e-05, momentum=0.1, affine=True, track_running_stats=True)
            )
          )
        )
        (agt): AggregateBlock(
          (agt_height): AggregateLayer(
            (linear_layer): Conv1d(160, 160, kernel_size=(1,), stride=(1,), groups=160, bias=False)
          )
          (agt_width): AggregateLayer(
            (linear_layer): Conv1d(160, 160, kernel_size=(1,), stride=(1,), groups=160, bias=False)
          )
          (norm_layer): BatchNorm2d(160, eps=1e-05, momentum=0.1, affine=True, track_running_stats=True)
        )
      )
    )
  )
  (tail): Sequential(
    (0): Conv2d(320, 2560, kernel_size=(1, 1), stride=(1, 1))
    (1): BatchNorm2d(2560, eps=1e-05, momentum=0.1, affine=True, track_running_stats=True)
    (2): Hardswish()
  )
  (classifier): Sequential(
    (0): GlobalPool(type=mean)
    (1): Linear(in_features=2560, out_features=5, bias=True)
  )
)
INFO - Overall parameters=   1.891M
INFO - Overall MACs (Thop)**=   451.6M
INFO - Overall FLOPs (Thop)**=   903.1M
INFO - Model EMA decay 0.9999984371886378
INFO - The log file will be saved in the file './output/log/None.log'.
INFO - ==================== Setting Random Seed ====================
INFO - Set random seed to 42
INFO - cudnn.deterministic set to True, cudnn.benchmark set to False
…
    EPS: 1.0e-08
    MOMENTUM: 0.9
    NAME: adamw
  START_EPOCH: 0
  USE_CHECKPOINT: false
  WARMUP_EPOCHS: 20
  WARMUP_LR: 3.125e-08
  WEIGHT_DECAY: 0.05

INFO - Building dataset with default transform.
INFO - Successfully build train dataset
INFO - Building dataset with default transform.
INFO - Successfully build val dataset
INFO - Creating model:cgvit
INFO - CGViT(
  (stage1): Sequential(
    (0): GhostBottleneck(in_channels=3, out_channels=32, dw_kernel_size=3, stride=2, dilation=1, use_se=False, kernel_size=1, act_fn=relu)
    (1): PartialBlock(
      (partial_conv1): PartialConv(
        (partial_conv): Conv2d(5, 5, kernel_size=(3, 3), stride=(1, 1), padding=(1, 1), bias=False)
      )
      (partial_conv2): PartialConv(
        (partial_conv): Conv2d(5, 5, kernel_size=(3, 3), stride=(1, 1), padding=(1, 1), bias=False)
      )
      (partial_conv3): PartialConv(
        (partial_conv): Conv2d(6, 6, kernel_size=(3, 3), stride=(1, 1), padding=(1, 1), bias=False)
      )
    )
    (2): PartialBlock(
      (partial_conv1): PartialConv(
        (partial_conv): Conv2d(5, 5, kernel_size=(3, 3), stride=(1, 1), padding=(1, 1), bias=False)
      )
      (partial_conv2): PartialConv(
        (partial_conv): Conv2d(5, 5, kernel_size=(3, 3), stride=(1, 1), padding=(1, 1), bias=False)
      )
      (partial_conv3): PartialConv(
        (partial_conv): Conv2d(6, 6, kernel_size=(3, 3), stride=(1, 1), padding=(1, 1), bias=False)
      )
    )
    (3): Identity()
  )
  (stage2): Sequential(
    (0): GhostBottleneck(in_channels=32, out_channels=64, dw_kernel_size=3, stride=2, dilation=1, use_se=False, kernel_size=1, act_fn=relu)
    (1): PartialBlock(
      (partial_conv1): PartialConv(
        (partial_conv): Conv2d(10, 10, kernel_size=(3, 3), stride=(1, 1), padding=(1, 1), bias=False)
      )
      (partial_conv2): PartialConv(
        (partial_conv): Conv2d(10, 10, kernel_size=(3, 3), stride=(1, 1), padding=(1, 1), bias=False)
      )
      (partial_conv3): PartialConv(
        (partial_conv): Conv2d(11, 11, kernel_size=(3, 3), stride=(1, 1), padding=(1, 1), bias=False)
      )
    )
    (2): PartialBlock(
      (partial_conv1): PartialConv(
        (partial_conv): Conv2d(10, 10, kernel_size=(3, 3), stride=(1, 1), padding=(1, 1), bias=False)
      )
      (partial_conv2): PartialConv(
        (partial_conv): Conv2d(10, 10, kernel_size=(3, 3), stride=(1, 1), padding=(1, 1), bias=False)
      )
      (partial_conv3): PartialConv(
        (partial_conv): Conv2d(11, 11, kernel_size=(3, 3), stride=(1, 1), padding=(1, 1), bias=False)
      )
    )
    (3): PartialBlock(
      (partial_conv1): PartialConv(
        (partial_conv): Conv2d(10, 10, kernel_size=(3, 3), stride=(1, 1), padding=(1, 1), bias=False)
      )
      (partial_conv2): PartialConv(
        (partial_conv): Conv2d(10, 10, kernel_size=(3, 3), stride=(1, 1), padding=(1, 1), bias=False)
      )
      (partial_conv3): PartialConv(
        (partial_conv): Conv2d(11, 11, kernel_size=(3, 3), stride=(1, 1), padding=(1, 1), bias=False)
      )
    )
    (4): PartialBlock(
      (partial_conv1): PartialConv(
        (partial_conv): Conv2d(10, 10, kernel_size=(3, 3), stride=(1, 1), padding=(1, 1), bias=False)
      )
      (partial_conv2): PartialConv(
        (partial_conv): Conv2d(10, 10, kernel_size=(3, 3), stride=(1, 1), padding=(1, 1), bias=False)
      )
      (partial_conv3): PartialConv(
        (partial_conv): Conv2d(11, 11, kernel_size=(3, 3), stride=(1, 1), padding=(1, 1), bias=False)
      )
    )
    (5): Identity()
  )
  (stage3): Sequential(
    (0): GhostBottleneck(in_channels=64, out_channels=96, dw_kernel_size=3, stride=2, dilation=1, use_se=False, kernel_size=3, act_fn=relu)
    (1): PartialBlock(
      (partial_conv1): PartialConv(
        (partial_conv): Conv2d(16, 16, kernel_size=(3, 3), stride=(1, 1), padding=(1, 1), bias=False)
      )
      (partial_conv2): PartialConv(
        (partial_conv): Conv2d(16, 16, kernel_size=(3, 3), stride=(1, 1), padding=(1, 1), bias=False)
      )
      (partial_conv3): PartialConv(
        (partial_conv): Conv2d(16, 16, kernel_size=(3, 3), stride=(1, 1), padding=(1, 1), bias=False)
      )
    )
    (2): PartialBlock(
      (partial_conv1): PartialConv(
        (partial_conv): Conv2d(16, 16, kernel_size=(3, 3), stride=(1, 1), padding=(1, 1), bias=False)
      )
      (partial_conv2): PartialConv(
        (partial_conv): Conv2d(16, 16, kernel_size=(3, 3), stride=(1, 1), padding=(1, 1), bias=False)
      )
      (partial_conv3): PartialConv(
        (partial_conv): Conv2d(16, 16, kernel_size=(3, 3), stride=(1, 1), padding=(1, 1), bias=False)
      )
    )
    (3): PartialBlock(
      (partial_conv1): PartialConv(
        (partial_conv): Conv2d(16, 16, kernel_size=(3, 3), stride=(1, 1), padding=(1, 1), bias=False)
      )
      (partial_conv2): PartialConv(
        (partial_conv): Conv2d(16, 16, kernel_size=(3, 3), stride=(1, 1), padding=(1, 1), bias=False)
      )
      (partial_conv3): PartialConv(
        (partial_conv): Conv2d(16, 16, kernel_size=(3, 3), stride=(1, 1), padding=(1, 1), bias=False)
      )
    )
    (4): PartialBlock(
      (partial_conv1): PartialConv(
        (partial_conv): Conv2d(16, 16, kernel_size=(3, 3), stride=(1, 1), padding=(1, 1), bias=False)
      )
      (partial_conv2): PartialConv(
        (partial_conv): Conv2d(16, 16, kernel_size=(3, 3), stride=(1, 1), padding=(1, 1), bias=False)
      )
      (partial_conv3): PartialConv(
        (partial_conv): Conv2d(16, 16, kernel_size=(3, 3), stride=(1, 1), padding=(1, 1), bias=False)
      )
    )
    (5): PartialBlock(
      (partial_conv1): PartialConv(
        (partial_conv): Conv2d(16, 16, kernel_size=(3, 3), stride=(1, 1), padding=(1, 1), bias=False)
      )
      (partial_conv2): PartialConv(
        (partial_conv): Conv2d(16, 16, kernel_size=(3, 3), stride=(1, 1), padding=(1, 1), bias=False)
      )
      (partial_conv3): PartialConv(
        (partial_conv): Conv2d(16, 16, kernel_size=(3, 3), stride=(1, 1), padding=(1, 1), bias=False)
      )
    )
    (6): PartialBlock(
      (partial_conv1): PartialConv(
        (partial_conv): Conv2d(16, 16, kernel_size=(3, 3), stride=(1, 1), padding=(1, 1), bias=False)
      )
      (partial_conv2): PartialConv(
        (partial_conv): Conv2d(16, 16, kernel_size=(3, 3), stride=(1, 1), padding=(1, 1), bias=False)
      )
      (partial_conv3): PartialConv(
        (partial_conv): Conv2d(16, 16, kernel_size=(3, 3), stride=(1, 1), padding=(1, 1), bias=False)
      )
    )
    (7): MobileViTBlockV2(
    	 Local representations
    		 Sequential(
      (0): Conv2d(96, 96, kernel_size=(3, 3), stride=(1, 1), groups=96)
      (1): BatchNorm2d(96, eps=1e-05, momentum=0.1, affine=True, track_running_stats=True)
      (2): Hardswish()
    )
    		 Conv2d(96, 96, kernel_size=(1, 1), stride=(1, 1))
    	 Global representations with patch size of 2x2
    		 LinearAttnFFN(embed_dim=96, ffn_dim=192, dropout=0.0, ffn_dropout=0.0, attn_fn=SeparableSelfAttention(
      (qkv_proj): Conv2d(96, 193, kernel_size=(1, 1), stride=(1, 1))
      (attn_dropout): Dropout(p=0.0, inplace=False)
      (out_proj): Conv2d(96, 96, kernel_size=(1, 1), stride=(1, 1))
    ), norm_layer=layer_norm_2d)
    		 LinearAttnFFN(embed_dim=96, ffn_dim=192, dropout=0.0, ffn_dropout=0.0, attn_fn=SeparableSelfAttention(
      (qkv_proj): Conv2d(96, 193, kernel_size=(1, 1), stride=(1, 1))
      (attn_dropout): Dropout(p=0.0, inplace=False)
      (out_proj): Conv2d(96, 96, kernel_size=(1, 1), stride=(1, 1))
    ), norm_layer=layer_norm_2d)
    		 LayerNorm2d(1, 96, eps=1e-05, affine=True)
    		 Conv2d(96, 96, kernel_size=(1, 1), stride=(1, 1))
    		 BatchNorm2d(96, eps=1e-05, momentum=0.1, affine=True, track_running_stats=True)
    )
  )
  (stage4): Sequential(
    (0): GhostBottleneck(in_channels=96, out_channels=128, dw_kernel_size=3, stride=2, dilation=1, use_se=False, kernel_size=3, act_fn=relu)
    (1): PartialBlock(
      (partial_conv1): PartialConv(
        (partial_conv): Conv2d(21, 21, kernel_size=(3, 3), stride=(1, 1), padding=(1, 1), bias=False)
      )
      (partial_conv2): PartialConv(
        (partial_conv): Conv2d(21, 21, kernel_size=(3, 3), stride=(1, 1), padding=(1, 1), bias=False)
      )
      (partial_conv3): PartialConv(
        (partial_conv): Conv2d(22, 22, kernel_size=(3, 3), stride=(1, 1), padding=(1, 1), bias=False)
      )
    )
    (2): PartialBlock(
      (partial_conv1): PartialConv(
        (partial_conv): Conv2d(21, 21, kernel_size=(3, 3), stride=(1, 1), padding=(1, 1), bias=False)
      )
      (partial_conv2): PartialConv(
        (partial_conv): Conv2d(21, 21, kernel_size=(3, 3), stride=(1, 1), padding=(1, 1), bias=False)
      )
      (partial_conv3): PartialConv(
        (partial_conv): Conv2d(22, 22, kernel_size=(3, 3), stride=(1, 1), padding=(1, 1), bias=False)
      )
    )
    (3): PartialBlock(
      (partial_conv1): PartialConv(
        (partial_conv): Conv2d(21, 21, kernel_size=(3, 3), stride=(1, 1), padding=(1, 1), bias=False)
      )
      (partial_conv2): PartialConv(
        (partial_conv): Conv2d(21, 21, kernel_size=(3, 3), stride=(1, 1), padding=(1, 1), bias=False)
      )
      (partial_conv3): PartialConv(
        (partial_conv): Conv2d(22, 22, kernel_size=(3, 3), stride=(1, 1), padding=(1, 1), bias=False)
      )
    )
    (4): PartialBlock(
      (partial_conv1): PartialConv(
        (partial_conv): Conv2d(21, 21, kernel_size=(3, 3), stride=(1, 1), padding=(1, 1), bias=False)
      )
      (partial_conv2): PartialConv(
        (partial_conv): Conv2d(21, 21, kernel_size=(3, 3), stride=(1, 1), padding=(1, 1), bias=False)
      )
      (partial_conv3): PartialConv(
        (partial_conv): Conv2d(22, 22, kernel_size=(3, 3), stride=(1, 1), padding=(1, 1), bias=False)
      )
    )
    (5): PartialBlock(
      (partial_conv1): PartialConv(
        (partial_conv): Conv2d(21, 21, kernel_size=(3, 3), stride=(1, 1), padding=(1, 1), bias=False)
      )
      (partial_conv2): PartialConv(
        (partial_conv): Conv2d(21, 21, kernel_size=(3, 3), stride=(1, 1), padding=(1, 1), bias=False)
      )
      (partial_conv3): PartialConv(
        (partial_conv): Conv2d(22, 22, kernel_size=(3, 3), stride=(1, 1), padding=(1, 1), bias=False)
      )
    )
    (6): PartialBlock(
      (partial_conv1): PartialConv(
        (partial_conv): Conv2d(21, 21, kernel_size=(3, 3), stride=(1, 1), padding=(1, 1), bias=False)
      )
      (partial_conv2): PartialConv(
        (partial_conv): Conv2d(21, 21, kernel_size=(3, 3), stride=(1, 1), padding=(1, 1), bias=False)
      )
      (partial_conv3): PartialConv(
        (partial_conv): Conv2d(22, 22, kernel_size=(3, 3), stride=(1, 1), padding=(1, 1), bias=False)
      )
    )
    (7): MobileViTBlockV2(
    	 Local representations
    		 Sequential(
      (0): Conv2d(128, 128, kernel_size=(3, 3), stride=(1, 1), groups=128)
      (1): BatchNorm2d(128, eps=1e-05, momentum=0.1, affine=True, track_running_stats=True)
      (2): Hardswish()
    )
    		 Conv2d(128, 128, kernel_size=(1, 1), stride=(1, 1))
    	 Global representations with patch size of 2x2
    		 LinearAttnFFN(embed_dim=128, ffn_dim=256, dropout=0.0, ffn_dropout=0.0, attn_fn=SeparableSelfAttention(
      (qkv_proj): Conv2d(128, 257, kernel_size=(1, 1), stride=(1, 1))
      (attn_dropout): Dropout(p=0.0, inplace=False)
      (out_proj): Conv2d(128, 128, kernel_size=(1, 1), stride=(1, 1))
    ), norm_layer=layer_norm_2d)
    		 LinearAttnFFN(embed_dim=128, ffn_dim=256, dropout=0.0, ffn_dropout=0.0, attn_fn=SeparableSelfAttention(
      (qkv_proj): Conv2d(128, 257, kernel_size=(1, 1), stride=(1, 1))
      (attn_dropout): Dropout(p=0.0, inplace=False)
      (out_proj): Conv2d(128, 128, kernel_size=(1, 1), stride=(1, 1))
    ), norm_layer=layer_norm_2d)
    		 LayerNorm2d(1, 128, eps=1e-05, affine=True)
    		 Conv2d(128, 128, kernel_size=(1, 1), stride=(1, 1))
    		 BatchNorm2d(128, eps=1e-05, momentum=0.1, affine=True, track_running_stats=True)
    )
  )
  (stage5): Sequential(
    (0): GhostBottleneck(in_channels=128, out_channels=256, dw_kernel_size=3, stride=2, dilation=1, use_se=False, kernel_size=3, act_fn=relu)
    (1): PartialBlock(
      (partial_conv1): PartialConv(
        (partial_conv): Conv2d(42, 42, kernel_size=(3, 3), stride=(1, 1), padding=(1, 1), bias=False)
      )
      (partial_conv2): PartialConv(
        (partial_conv): Conv2d(42, 42, kernel_size=(3, 3), stride=(1, 1), padding=(1, 1), bias=False)
      )
      (partial_conv3): PartialConv(
        (partial_conv): Conv2d(43, 43, kernel_size=(3, 3), stride=(1, 1), padding=(1, 1), bias=False)
      )
    )
    (2): PartialBlock(
      (partial_conv1): PartialConv(
        (partial_conv): Conv2d(42, 42, kernel_size=(3, 3), stride=(1, 1), padding=(1, 1), bias=False)
      )
      (partial_conv2): PartialConv(
        (partial_conv): Conv2d(42, 42, kernel_size=(3, 3), stride=(1, 1), padding=(1, 1), bias=False)
      )
      (partial_conv3): PartialConv(
        (partial_conv): Conv2d(43, 43, kernel_size=(3, 3), stride=(1, 1), padding=(1, 1), bias=False)
      )
    )
    (3): PartialBlock(
      (partial_conv1): PartialConv(
        (partial_conv): Conv2d(42, 42, kernel_size=(3, 3), stride=(1, 1), padding=(1, 1), bias=False)
      )
      (partial_conv2): PartialConv(
        (partial_conv): Conv2d(42, 42, kernel_size=(3, 3), stride=(1, 1), padding=(1, 1), bias=False)
      )
      (partial_conv3): PartialConv(
        (partial_conv): Conv2d(43, 43, kernel_size=(3, 3), stride=(1, 1), padding=(1, 1), bias=False)
      )
    )
    (4): PartialBlock(
      (partial_conv1): PartialConv(
        (partial_conv): Conv2d(42, 42, kernel_size=(3, 3), stride=(1, 1), padding=(1, 1), bias=False)
      )
      (partial_conv2): PartialConv(
        (partial_conv): Conv2d(42, 42, kernel_size=(3, 3), stride=(1, 1), padding=(1, 1), bias=False)
      )
      (partial_conv3): PartialConv(
        (partial_conv): Conv2d(43, 43, kernel_size=(3, 3), stride=(1, 1), padding=(1, 1), bias=False)
      )
    )
    (5): PartialBlock(
      (partial_conv1): PartialConv(
        (partial_conv): Conv2d(42, 42, kernel_size=(3, 3), stride=(1, 1), padding=(1, 1), bias=False)
      )
      (partial_conv2): PartialConv(
        (partial_conv): Conv2d(42, 42, kernel_size=(3, 3), stride=(1, 1), padding=(1, 1), bias=False)
      )
      (partial_conv3): PartialConv(
        (partial_conv): Conv2d(43, 43, kernel_size=(3, 3), stride=(1, 1), padding=(1, 1), bias=False)
      )
    )
    (6): PartialBlock(
      (partial_conv1): PartialConv(
        (partial_conv): Conv2d(42, 42, kernel_size=(3, 3), stride=(1, 1), padding=(1, 1), bias=False)
      )
      (partial_conv2): PartialConv(
        (partial_conv): Conv2d(42, 42, kernel_size=(3, 3), stride=(1, 1), padding=(1, 1), bias=False)
      )
      (partial_conv3): PartialConv(
        (partial_conv): Conv2d(43, 43, kernel_size=(3, 3), stride=(1, 1), padding=(1, 1), bias=False)
      )
    )
    (7): MobileViTBlockV2(
    	 Local representations
    		 Sequential(
      (0): Conv2d(256, 256, kernel_size=(3, 3), stride=(1, 1), groups=256)
      (1): BatchNorm2d(256, eps=1e-05, momentum=0.1, affine=True, track_running_stats=True)
      (2): Hardswish()
    )
    		 Conv2d(256, 256, kernel_size=(1, 1), stride=(1, 1))
    	 Global representations with patch size of 2x2
    		 LinearAttnFFN(embed_dim=256, ffn_dim=512, dropout=0.0, ffn_dropout=0.0, attn_fn=SeparableSelfAttention(
      (qkv_proj): Conv2d(256, 513, kernel_size=(1, 1), stride=(1, 1))
      (attn_dropout): Dropout(p=0.0, inplace=False)
      (out_proj): Conv2d(256, 256, kernel_size=(1, 1), stride=(1, 1))
    ), norm_layer=layer_norm_2d)
    		 LinearAttnFFN(embed_dim=256, ffn_dim=512, dropout=0.0, ffn_dropout=0.0, attn_fn=SeparableSelfAttention(
      (qkv_proj): Conv2d(256, 513, kernel_size=(1, 1), stride=(1, 1))
      (attn_dropout): Dropout(p=0.0, inplace=False)
      (out_proj): Conv2d(256, 256, kernel_size=(1, 1), stride=(1, 1))
    ), norm_layer=layer_norm_2d)
    		 LayerNorm2d(1, 256, eps=1e-05, affine=True)
    		 Conv2d(256, 256, kernel_size=(1, 1), stride=(1, 1))
    		 BatchNorm2d(256, eps=1e-05, momentum=0.1, affine=True, track_running_stats=True)
    )
  )
  (conv_1x1_exp): Sequential(
    (0): Conv2d(256, 960, kernel_size=(1, 1), stride=(1, 1))
    (1): BatchNorm2d(960, eps=1e-05, momentum=0.1, affine=True, track_running_stats=True)
    (2): ReLU()
  )
  (classifier): Sequential(
    (0): GlobalPool(type=mean)
    (1): Linear(in_features=960, out_features=5, bias=True)
  )
)
INFO - Overall parameters=   2.511M
INFO - Overall MACs (Thop)**=   388.8M
INFO - Overall FLOPs (Thop)**=   777.6M
INFO - Model EMA decay 0.9999968743797181
INFO -  * Acc@1 19.125 Acc@5 100.000
INFO - Accuracy of the ema network on the 800 test images: 19.1%
INFO - Start training
INFO - The log file will be saved in the file './output/log/None.log'.
…
